model.pth (torch_old, 88668 bytes, 8 tensors)

conv1.weight f4 [10, 1, 5, 5]
0	0x3e5754c0	0.21028423
1	0x3e5d076f	0.21584867
2	0x3e92f5b8	0.28703094
3	0x3dc40fca	0.09573324
4	0x3eaf8da3	0.34287748
5	0x3dba8e13	0.0910913
6	0x3e113f67	0.14184342
7	0x3dc8d7dc	0.09806797
8	0x3e52f6de	0.20601985
9	0xbc99cce2	-0.018774454
10	0x3dec9d7c	0.11553475
11	0xbddef260	-0.10886073
12	0xbe431fea	-0.19055143
13	0xbd878b5d	-0.06618378
14	0x3e05d67f	0.13070105
15	0x3da9a679	0.08283705
16	0xbe6bf87f	-0.23044012
17	0x3e0d428e	0.1379492
18	0xbe778b54	-0.24174243
19	0x3dfb10c1	0.12259055
20	0xbe016275	-0.12635215
21	0xbe58dadf	-0.21177243
22	0xbe6980be	-0.22803017
23	0x3baa7aaf	0.0052026133
24	0x3ba48bc1	0.005021543
25	0x3e43d49d	0.19124074
26	0xbe1233e9	-0.14277615
27	0xbd957445	-0.07297567
28	0x3e11c117	0.14233814
29	0x3e027d22	0.12743047
30	0x3e0ed319	0.13947715
31	0xbddb28d0	-0.10701144
32	0xbe3b7f9f	-0.18310402
33	0xbe0025f1	-0.12514473
34	0x3daa7d84	0.083247215
35	0x3e8b29dd	0.27180377
36	0xba6c2910	-0.00090088043
37	0xbdb3e79c	-0.0878441
38	0x3d5ac865	0.053413767
39	0xbe39fb55	-0.18162282
40	0x3e6fb040	0.23407078
41	0xbe3a33c9	-0.18183817
42	0xbe332aac	-0.17496747
43	0xbdcd38d9	-0.100206085
44	0xbc1a767e	-0.009427665
45	0x3e4c7985	0.19968231
46	0x3e53ff82	0.20702937
47	0xbe6886b6	-0.22707638
48	0x3d0dd410	0.034626067
49	0xbe2c03bf	-0.16798304
50	0x3dfef22e	0.12448536
51	0x3e8b29aa	0.27180225
52	0x3e2d7d4f	0.16942333
53	0xbe035fc1	-0.12829496
54	0xbe441902	-0.19150165
55	0x3e5632a4	0.20917755
56	0x3e914fe8	0.28381276
57	0xbda2abbe	-0.079429135
58	0x3d1d0fd6	0.03834518
59	0xbe88c5ba	-0.26713353
60	0x3e3f2e39	0.18669976
61	0x3ec3827e	0.38185495
62	0x3e8363bc	0.2566203
63	0xbe71d0a0	-0.2361474
64	0xbe84c03f	-0.25927922
65	0x3ea9f58f	0.3319516
66	0x3ea06bf9	0.31332377
67	0x3ea86e23	0.32896528
68	0x3d77dedb	0.060515266
69	0x3e281907	0.16415797
70	0x3e8e6955	0.27814737
71	0x3ead2d5b	0.33823666
72	0x3e8fac4e	0.28061146
73	0x3e52d5ce	0.20589373
74	0x3ea1ca11	0.31599477
75	0xbd2cea9a	-0.04221592
76	0xbe46a616	-0.19399294
77	0x3d1bb7af	0.03801697
78	0x3d61011c	0.0549327
79	0x3db3d610	0.087810636
80	0xbdd328ca	-0.10310514
81	0x3d1c33d4	0.038135365
82	0xbe4b0e7d	-0.19829746
83	0xbdaa8307	-0.08325773
84	0xbd793039	-0.060837004
85	0xbe778574	-0.24172002
86	0xbd985531	-0.07438124
87	0x3e1d1349	0.15339388
88	0x3e782f4d	0.24236794
89	0x3e053e70	0.130121
90	0xbb164dce	-0.0022934559
91	0xbcad1c14	-0.021131553
92	0x3e333567	0.1750084
93	0x3d54806b	0.05188028
94	0xbe2822c9	-0.1641952
95	0x3a4aaa80	0.0007731095
96	0x3e8ac940	0.27106667
97	0x3e5c7de9	0.21532406
98	0x3dc9a1d6	0.09845321
99	0xbd9edd28	-0.07757026
100	0x3e4629e3	0.19351916
101	0x3e6f58a1	0.23373653
102	0x3df15b3d	0.117849804
103	0x3e8a61c4	0.27027714
104	0x3e037797	0.12838589
105	0x3da554d0	0.08072817
106	0xbd48f36e	-0.049060278
107	0xbd5b6834	-0.053566173
108	0x3e76be59	0.2409605
109	0x3e86a390	0.26296663
110	0xbe6ed006	-0.23321542
111	0xbd97a208	-0.07403952
112	0x3e125d7e	0.14293477
113	0x3e753d6a	0.23949209
114	0x3ebcdf82	0.36889273
115	0xbd2ff0d2	-0.042954274
116	0xbdd6c2d5	-0.1048638
117	0x3e953e06	0.29148883
118	0x3ecf1160	0.40442944
119	0x3dd1ebde	0.10250066
120	0x3d4efd16	0.05053433
121	0x3e82fc34	0.2558304
122	0x3db2f29d	0.08737681
123	0x3d8db996	0.06920163
124	0x3e7428e6	0.23843727
125	0x3dfdb99b	0.12388917
126	0xbdb63e7b	-0.08898636
127	0xbe806775	-0.2507893
128	0xbe95b2ae	-0.29237884
129	0xbe6734d7	-0.2257875
130	0xbe4e437f	-0.20142935
131	0xbe80f3ed	-0.251861
132	0xbdfcdf9e	-0.12347339
133	0xbdc83e13	-0.09777465
134	0x3cfe4f10	0.03104356
135	0x3d1e37b1	0.03862733
136	0x3cddf1b2	0.027092788
137	0x3e7ad5ab	0.2449557
138	0x3e34eb68	0.17667925
139	0x3dce7303	0.100805305
140	0x3e85635f	0.26052377
141	0x3eb3215d	0.34986392
142	0x3d73a412	0.05948264
143	0x3ec2079c	0.3789643
144	0x3ea5ab83	0.32357416
145	0x3e8b5e30	0.27220297
146	0x3e453439	0.19258203
147	0x3d64c1ed	0.055849005
148	0xbe07f251	-0.1327603
149	0xbbf31fee	-0.007419578
150	0x3e338d6d	0.17534418
151	0xbde8540f	-0.11344158
152	0x3da7086b	0.081559025
153	0xbd95e653	-0.073193215
154	0xba83aba8	-0.0010045664
155	0xbce2a849	-0.027668135
156	0xbdcb98e7	-0.09941273
157	0xbe418153	-0.1889699
158	0xbde4d5dd	-0.11173604
159	0xbcbaf32c	-0.022821032
160	0x3d0cd8d1	0.03438646
161	0x3d7a1cae	0.061062507
162	0x3e1bd93d	0.15219589
163	0x3d3a3e93	0.04546983
164	0xbe683e91	-0.22680117
165	0xbe192a5b	-0.14957564
166	0xbdb6c123	-0.08923557
167	0xbe18104c	-0.14849967
168	0x3d956ce8	0.07296163
169	0xbcc49ba4	-0.023999996
170	0x3e77d48a	0.24202171
171	0x3da1f810	0.07908642
172	0x3e3e596a	0.18588796
173	0xbd264db7	-0.04060146
174	0x3e81e45c	0.25369537
175	0xbdb55c2d	-0.08855472
176	0x3e2f4cdf	0.17119168
177	0xbcb9afbc	-0.022666804
178	0xbe128aca	-0.14310756
179	0xbc1af52c	-0.009457868
180	0xbe197e3d	-0.14989562
181	0x3e23e632	0.16005781
182	0xbc8a2c7c	-0.016866915
183	0xbc51bfec	-0.012802105
184	0xbcc917f7	-0.02454756
185	0xbd1677b2	-0.036735244
186	0x3e2eee59	0.1708311
187	0x3e8c36f8	0.27385688
188	0x3e3402f4	0.17579252
189	0x3da65942	0.08122493
190	0xbe28df63	-0.16491465
191	0x3dbe0d73	0.09279909
192	0xbd409da1	-0.047025327
193	0xbdc13a00	-0.09434891
194	0x3e5b3c8a	0.21409813
195	0xbe801370	-0.2501483
196	0xbdfc0765	-0.12306098
197	0xbdfe2a35	-0.12410394
198	0x3d58d7d4	0.052940205
199	0xbe0a5704	-0.13509756
200	0xbe3f9655	-0.18709691
201	0xbe81f99f	-0.25385758
202	0xbdd48738	-0.103773534
203	0xbe625437	-0.22102438
204	0x3dab2098	0.08355826
205	0x3d7079ba	0.058709837
206	0x3d02ea25	0.03196158
207	0x3d8ac381	0.06775571
208	0xbe327d44	-0.17430598
209	0xbd2ec2af	-0.042666133
210	0xbcdaa7a1	-0.02669126
211	0xbe1b08ff	-0.1514015
212	0xbd8c655c	-0.0685527
213	0xbd902fb8	-0.07040352
214	0xbe65b2ea	-0.22431532
215	0x3d5d7bd9	0.05407319
216	0xbd822149	-0.06354005
217	0xbce4a24b	-0.027909419
218	0xbc82fc6e	-0.015989508
219	0xbcf7415e	-0.030182537
220	0x3dd06812	0.101761
221	0x3e28064a	0.16408649
222	0x3e680235	0.22657092
223	0xbe093bbd	-0.13401695
224	0x3e156a54	0.14591342
225	0x3e88f3f5	0.26748624
226	0x3ec58243	0.38575944
227	0x3ea7ca43	0.327715
228	0x3e51b666	0.20479736
229	0x3e125482	0.1429005
230	0x3e97892a	0.29596835
231	0x3de0a6af	0.10969292
232	0xbd84f52a	-0.06492074
233	0xbe2a9f2d	-0.16662283
234	0xbdac9e09	-0.0842858
235	0x3eb3da0c	0.35127294
236	0xbd599fd9	-0.05313096
237	0xbe553c93	-0.20823888
238	0x3c7ccd38	0.015429787
239	0x3d0e8561	0.03479517
240	0x3e66d5e8	0.22542536
241	0xbe092429	-0.133927
242	0xbcffb7b2	-0.031215522
243	0xbe0d04f2	-0.13771418
244	0xbe42b136	-0.19012913
245	0x3e169075	0.14703543
246	0xbdafe023	-0.085876726
247	0xbe299596	-0.16560969
248	0xbd086d74	-0.033307508
249	0xbdc5a45a	-0.09650488

conv1.bias f4 [10]
0	0x3d5d2ad2	0.053995915
1	0x3e176873	0.14785938
2	0x3e250a9c	0.16117328
3	0xbc9aa589	-0.018877761
4	0x3e50a64f	0.20375942
5	0xbdb81a62	-0.08989407
6	0xbd9619da	-0.073291495
7	0xbcb2ceec	-0.021827184
8	0x3e67c910	0.22635293
9	0x3df02274	0.117253214

conv2.weight f4 [20, 10, 5, 5]
0	0xbd243e42	-0.040098436
1	0xbb857314	-0.0040725563
2	0xbcff5c08	-0.031171814
3	0xbc46535e	-0.012104837
4	0xbc902ff5	-0.017600993
5	0x3c92c773	0.01791737
6	0xbdc62c0a	-0.096763685
7	0xbc31b3b4	-0.010846067
8	0xbc7ee479	-0.015557402
9	0xbbebd23c	-0.0071966927
10	0xbc44ac81	-0.012004019
11	0xbd9d7580	-0.07688427
12	0xbd40c8cb	-0.04706649
13	0x3d6c82c0	0.05774188
14	0xbd80520f	-0.062656514
15	0x3ca7b3d3	0.020471489
16	0xbcccff9e	-0.025024232
17	0x3d2e8fa9	0.042617474
18	0xbc9b0941	-0.018925311
19	0xbd3be76e	-0.045875005
20	0xbd86bbe4	-0.06578806
21	0xbccf08f8	-0.025272831
22	0xbbcaa731	-0.0061844816
23	0x3c8ee24a	0.017441887
24	0xbd92d6ea	-0.07169898
25	0x3d09d10a	0.03364662
26	0xbc0e5bb0	-0.008688852
27	0x3c7f52af	0.015583678
28	0xbb6d4b46	-0.0036208197
29	0xbd18a8ae	-0.03727024
30	0xbd82b251	-0.063816674
31	0xbc4dc142	-0.012558283
32	0xbce51558	-0.027964279
33	0xbb7c784d	-0.0038523853
34	0xbce404f9	-0.027834402
35	0x3c22d1eb	0.009937744
36	0xbd054350	-0.032534897
37	0x3d1f2f82	0.038863666
38	0x3c2d9df6	0.010596743
39	0xbd61388f	-0.05498558
40	0xbd940e32	-0.0722927
41	0x3d04a1cd	0.032380868
42	0x3d491df6	0.04910084
43	0x3d23db53	0.040004086
44	0xbd7f880b	-0.0623856
45	0xbd07cc8b	-0.03315405
46	0xbcf1ba54	-0.029507793
47	0x3cacc8e5	0.021091888
48	0xbd6bacc5	-0.057537813
49	0xbd9c61e0	-0.07635856
50	0xbdfa8d06	-0.12233929
51	0xbe39ae57	-0.18132912
52	0xbdfd829e	-0.12378429
53	0xbcddcc94	-0.02707509
54	0x3d8ad1c0	0.06778288
55	0xbe073ff1	-0.13207985
56	0xbd8f0216	-0.0698282
57	0x3cfdf661	0.031001272
58	0x3d127437	0.035755362
59	0x3c35f1ed	0.011105043
60	0xbe5c4b7a	-0.21513167
61	0xbd31e64f	-0.04343253
62	0x3e0c154a	0.13679996
63	0xbca257da	-0.019817282
64	0xbdd617f7	-0.1045379
65	0xbdc5d418	-0.09659594
66	0x3dba1cf6	0.09087555
67	0x3e22b3b3	0.15888862
68	0x3cca626a	0.02470513
69	0xbd995b52	-0.07488121
70	0xbc1540e4	-0.009109709
71	0x3cf09add	0.02937072
72	0x3dbff47e	0.09372805
73	0xbb705fb2	-0.0036678133
74	0xbd10c1f6	-0.035341226
75	0x3c5e2c45	0.013560359
76	0x3cdc35f5	0.026881197
77	0xbc3ac0a2	-0.011398466
78	0x3db3572b	0.0875686
79	0x3d4c96b5	0.049948413
80	0x3d033255	0.032030422
81	0x3dbb33ba	0.091407254
82	0x3d550a3a	0.052011706
83	0x3d6881b8	0.056764334
84	0x3ca40a1c	0.020024352
85	0x3c55a3a0	0.0130394995
86	0x3d1c42c7	0.03814962
87	0x3cee707a	0.029106367
88	0xbce8623e	-0.028367158
89	0x3ce96b4f	0.028493552
90	0xbcc78cb1	-0.02435908
91	0x3d79bbcc	0.060970113
92	0x3d544e35	0.051832397
93	0x3d35c984	0.044381633
94	0x3d6c2f1a	0.057662107
95	0x3c84a2bf	0.016190885
96	0x3d287e0c	0.041135833
97	0x3c9b53d6	0.018960875
98	0x3aab109e	0.0013051217
99	0xbd1c98da	-0.038231708
100	0xbe294485	-0.16530044
101	0xbc98ab71	-0.018636437
102	0x3dd935a8	0.10605937
103	0x3d3d674c	0.04624109
104	0x3d7722d0	0.060335934
105	0xbddc679c	-0.107619494
106	0x3d5303cd	0.051517297
107	0x3d84603f	0.0646367
108	0xbd9a81dc	-0.075443
109	0xbcb2acec	-0.021810971
110	0xbce2a5d0	-0.027666956
111	0x3d71307a	0.05888412
112	0xbc6c57c0	-0.014425218
113	0xbcb1e653	-0.021716272
114	0xbc1b6ff8	-0.009487145
115	0xbbda4ae4	-0.0066617597
116	0x3da2635f	0.0792911
117	0xbda6241d	-0.08112357
118	0xbc9770f5	-0.01848648
119	0x3c76a70c	0.0150544755
120	0x3d76a90a	0.060219802
121	0x3b97e986	0.0046359925
122	0xbbe7351a	-0.0070558907
123	0x3cdac8e6	0.026707124
124	0xbd4587df	-0.04822528
125	0xbcfd7552	-0.030939732
126	0xbd8a5057	-0.06753605
127	0xbd82742b	-0.063698135
128	0x3d141713	0.036154818
129	0x3be1985e	0.0068846187
130	0xbdce219a	-0.10065003
131	0xbd519159	-0.051164005
132	0xbcfca88f	-0.030842094
133	0xbc9c080b	-0.019046804
134	0xbde3d0bf	-0.111237995
135	0xbda81913	-0.082079075
136	0xbdca2328	-0.09869987
137	0xbccec8ea	-0.025242288
138	0xbcccf106	-0.025017273
139	0xbd9079ab	-0.07054456
140	0x3c51232b	0.012764732
141	0xbd1f85be	-0.038945906
142	0xbdd29537	-0.10282367
143	0x3d31d280	0.04341364
144	0x3d3049df	0.0430392
145	0xbc0c7fd9	-0.008575403
146	0xbd86d9fe	-0.065845475
147	0xbdaa3f83	-0.08312895
148	0x3c8998d6	0.01679651
149	0x3d68ed7a	0.0568671
150	0xbd5e6947	-0.05429962
151	0xbc826578	-0.015917525
152	0x3bd6944d	0.0065484405
153	0xbd8943a7	-0.06702357
154	0x3c815b8a	0.01579072
155	0x3d49de1e	0.049284093
156	0x3d398bdc	0.045299396
157	0xbcb6f7c5	-0.022334943
158	0xbd9fc248	-0.07800728
159	0xbcedd846	-0.029033791
160	0xbc7c8ad2	-0.015413957
161	0xbc414931	-0.011797235
162	0x3d194739	0.03742144
163	0xbb225f7d	-0.0024776154
164	0x3d7d5465	0.061848063
165	0x3d6c2b20	0.057658315
166	0xbd88af68	-0.06674081
167	0xbd7e6b29	-0.062113915
168	0xbcacb7ac	-0.021083675
169	0xbd512922	-0.051064618
170	0xbcd44e66	-0.02591629
171	0xbd6cdb98	-0.05782661
172	0xbc9b765a	-0.018977333
173	0xbd336c95	-0.043804724
174	0x3d07898c	0.03309016
175	0xbd0e8f6f	-0.034804758
176	0x3c12c3cf	0.008957817
177	0xbb6374ee	-0.0034707147
178	0x3d0bdd92	0.034146853
179	0x3c0f01ea	0.008728484
180	0xbcadc5b7	-0.021212442
181	0xbcfae054	-0.030624546
182	0xbd05caca	-0.032664098
183	0xbc8293ee	-0.015939679
184	0x3d0d3d39	0.034482215
185	0x3c981ec7	0.018569363
186	0xbd80e0c4	-0.06292871
187	0xbca8325b	-0.020531824
188	0x3c399faf	0.011329575
189	0xbd311807	-0.043235805
190	0x3cfb119c	0.030648045
191	0x3cac064d	0.020999098
192	0xbc444f03	-0.0119817285
193	0xbd7549d0	-0.059884846
194	0x3c8b29f4	0.016987778
195	0x3d1446b0	0.036200225
196	0x3d47d778	0.04878947
197	0x3d9df430	0.07712591
198	0x3c0af82c	0.00848202
199	0x3d7d1e9e	0.061796777
200	0xbce0a200	-0.027420998
201	0xbb9aaa47	-0.0047200057
202	0x38ed44cd	0.00011313856
203	0xbd4494ec	-0.047993585
204	0xbd16aa62	-0.036783583
205	0xbd5c450e	-0.053776793
206	0x3d333310	0.04374987
207	0x3c6a6846	0.014307087
208	0xbcd69ed0	-0.026198775
209	0xbc4e0f60	-0.012576908
210	0xbd29b8d8	-0.041436046
211	0xbda6ea45	-0.08150152
212	0xbd37ad4c	-0.044843003
213	0x3cc407ad	0.023929441
214	0xbb72a1a1	-0.0037022608
215	0x3a0b10b3	0.00053049176
216	0x3cb06d83	0.021536594
217	0xbcca471d	-0.024692113
218	0xbcebbbd0	-0.02877608
219	0x3c53d597	0.012929342
220	0xbc49e7c9	-0.012323328
221	0xbca1e19d	-0.019760901
222	0x3c6cb762	0.014448019
223	0x3b190b0a	0.0023352527
224	0xb938d41a	-0.00017626621
225	0x3ceba551	0.028765352
226	0xbd4b5217	-0.049638834
227	0xbc93a153	-0.018021261
228	0xbc4cd71a	-0.012502456
229	0x3d70e4da	0.058812
230	0x3d51b5ef	0.051198896
231	0xbd9a841c	-0.07544729
232	0xbd50aabb	-0.05094407
233	0x3da277d2	0.0793301
234	0x3d0f063a	0.034918047
235	0xbd5c01da	-0.053712703
236	0x3cb97e67	0.022643281
237	0x3df290e6	0.118440434
238	0x3ddebe3e	0.108761296
239	0xbc53c73d	-0.01292592
240	0xbd48d13c	-0.049027666
241	0xbd8e0a9d	-0.06935618
242	0x3d57140c	0.052509353
243	0x3cbb7ba2	0.022886101
244	0xbca06a33	-0.01958189
245	0x3b48ab98	0.0030619856
246	0x3ced97b4	0.029003002
247	0x3d964878	0.07338041
248	0xbdaaf0bf	-0.083467
249	0x3a82ea0e	0.0009987967
250	0xbbbce0b2	-0.0057640905
251	0xbd16eb2b	-0.036845367
252	0xbda32881	-0.0796671
253	0x3d5d05d3	0.053960633
254	0x3c0fd4ef	0.008778795
255	0xbd4c26f1	-0.049841825

conv2.bias f4 [20]
0	0xbc9040d2	-0.017609034
1	0x3d0f2efe	0.034956925
2	0xbbeff106	-0.0073224334
3	0xbd8c1377	-0.0683965
4	0x3ceecd43	0.02915061
5	0xbc90065d	-0.01758116
6	0x3d181013	0.037124705
7	0x3d175ec6	0.036955617
8	0xbc57fdd4	-0.013183076
9	0x3cc7e432	0.024400804
10	0x3d7683b6	0.060184203
11	0x3c105516	0.008809349
12	0xbcbaaecf	-0.022788433
13	0x3d1b9887	0.03798726
14	0xbd5d31d1	-0.054002587
15	0xbd4bc70d	-0.049750376
16	0x3cc0e092	0.023544583
17	0xbd06834e	-0.032840066
18	0x3ca30ea9	0.019904451
19	0x3cebf996	0.028805535

fc1.weight f4 [50, 320]
0	0x3c03d6de	0.008046834
1	0xbc2077ed	-0.009794218
2	0x3dd08e64	0.10183409
3	0x3d475bb7	0.04867145
4	0xbca650d6	-0.020302217
5	0x3cdf5e04	0.02726651
6	0x3c61f3fa	0.013791079
7	0xbcb557f5	-0.022136668
8	0xbd4ca794	-0.049964502
9	0x3b711996	0.0036788932
10	0x3d8429d5	0.06453291
11	0xbb9327bb	-0.00449082
12	0xbb821e85	-0.0039709234
13	0xbd8ee21f	-0.06976723
14	0x3d03465e	0.03204953
15	0xbd687145	-0.056748647
16	0x3c8d394f	0.01723924
17	0xbd177f7a	-0.036986805
18	0x3d6994e5	0.057026763
19	0xba8d45ae	-0.0010778212
20	0xbd0e0ff3	-0.03468318
21	0xbb763c82	-0.0037572687
22	0xbba0794f	-0.0048972736
23	0xbcda1d28	-0.02662523
24	0x3cb5ce4a	0.022193093
25	0xbd37e374	-0.04489465
26	0xbc0f875f	-0.008760302
27	0x3950e03a	0.00019919957
28	0xbd47250c	-0.048619315
29	0x3c2f87eb	0.010713558
30	0xbd238ace	-0.039927296
31	0x3d4899ec	0.048974916
32	0xbbff1f97	-0.007785748
33	0xbd9bab86	-0.07601075
34	0xbc6b786e	-0.014371974
35	0x3d1af4c6	0.03783109
36	0xbcf5fd2e	-0.030027952
37	0xbd0f6f25	-0.035018105
38	0x3c8fecbc	0.017568938
39	0x3d50d2e4	0.05098237
40	0xbb77762c	-0.0037759645
41	0x3d3c7ddd	0.04601847
42	0x3c378d2c	0.011203092
43	0xbb9190c6	-0.004442307
44	0xbc653cc3	-0.0139915375
45	0xbd792304	-0.06082441
46	0x3bf4fee0	0.0074766725
47	0xbd9d382c	-0.076767296
48	0x3d2e7b9f	0.042598363
49	0xbcf0165d	-0.029307539
50	0xbd2c6510	-0.04208857
51	0x3d485783	0.048911583
52	0x3d49ec78	0.04929778
53	0x3ceb26e6	0.028705072
54	0x3ceedab4	0.02915702
55	0x3a5012c8	0.0007937369
56	0x3d366d8a	0.04453806
57	0xbce5dc31	-0.028059097
58	0xbcaf5a2b	-0.0214053
59	0xbc668995	-0.014070888
60	0x3d45529f	0.048174497
61	0xbc814ed2	-0.015784655
62	0x3c2cedd6	0.010554751
63	0xbc0e4738	-0.008683972
64	0x3b94deaa	0.004543145
65	0x3c44c0ba	0.01200884
66	0xbd892c11	-0.06697858
67	0x3c2db307	0.0106017655
68	0xbd3dc5c6	-0.04633119
69	0x3dc79cdb	0.09746715
70	0xbcb18eec	-0.021674596
71	0x3d69fba1	0.057124738
72	0xbd6169ac	-0.055032417
73	0x3bf7bbbd	0.007560222
74	0x3c915aef	0.017743556
75	0x3c14d406	0.009083753
76	0xbd952e3c	-0.07284209
77	0xbc8b81ce	-0.01702967
78	0xbc9feb22	-0.0195213
79	0x3cba0999	0.022709655
80	0xbccf4d55	-0.02530543
81	0x3bacaf74	0.005269939
82	0x3cdceff3	0.026969885
83	0x3d8d8d77	0.06911748
84	0xbc19020b	-0.009338866
85	0xbc418162	-0.011810632
86	0x3c0439c7	0.008070416
87	0xbd1c002a	-0.038086094
88	0x3c879e52	0.016554985
89	0x3d391b0e	0.045191817
90	0xbd5b0649	-0.05347279
91	0x3a408074	0.000734336
92	0x3ce8bc93	0.028410232
93	0x3d51f1e0	0.05125606
94	0x3d216ee1	0.039412383
95	0x3c5a3d2f	0.013320251
96	0x3d1035c8	0.03520754
97	0xbc9baa5f	-0.019002138
98	0x3d4842a9	0.048891697
99	0xbd107b99	-0.035274122
100	0x3c43e0d4	0.011955459
101	0x3ccecd75	0.025244454
102	0x3bfda9f3	0.007741207
103	0xbdb8122e	-0.089878425
104	0xbcef54a1	-0.029215159
105	0xbcfb0e5c	-0.030646496
106	0x3d7606fe	0.060065262
107	0x3af2adf1	0.0018514973
108	0xbd3665e6	-0.04453077
109	0xbd4ea66c	-0.05045168
110	0xbcbf1807	-0.023326887
111	0x3d533af1	0.051569883
112	0xbda0883f	-0.07838487
113	0xbaa2f94e	-0.0012433918
114	0xbcd86ec2	-0.026420001
115	0xbde0e694	-0.10981479
116	0xbd146c3a	-0.036236025
117	0xbc3cdb2e	-0.011526866
118	0x3cb049a6	0.021519493
119	0x3d3b6545	0.045750875
120	0x3ceba85c	0.028766803
121	0xbc64d31a	-0.013966346
122	0x3cd8e0db	0.026474407
123	0xbc8a6fa8	-0.016898945
124	0xbd189973	-0.037255716
125	0x3d80d679	0.062909074
126	0x3cb34d6c	0.021887504
127	0x3c104638	0.008805804
128	0xbc02d693	-0.007985729
129	0x3d1242bd	0.035708178
130	0x3c82f1ec	0.015984498
131	0x3c80b255	0.015710035
132	0xbd2871b1	-0.04112405
133	0x3c4e2a8b	0.012583385
134	0xbc19d6c3	-0.009389582
135	0x3b923d7b	0.0044628954
136	0xbc706175	-0.014671673
137	0x3d19e1b5	0.037568767
138	0x3d673467	0.05644646
139	0xbc9ecbb7	-0.019384248
140	0x3c814a91	0.015782626
141	0x3c3f0182	0.011658074
142	0xbd40b57a	-0.04704807
143	0x3bc4d576	0.006006892
144	0xbcb973c1	-0.022638204
145	0x3ca9bdea	0.02072044
146	0xbc158a47	-0.009127206
147	0x398e9f19	0.00027202888
148	0x3c4fba1c	0.012678649
149	0xbb2b9f98	-0.0026187655
150	0xbd531197	-0.051530447
151	0x3d6485fc	0.05579184
152	0xbd29632f	-0.041354354
153	0x3d7816b0	0.06056851
154	0xbc1f04a1	-0.009705693
155	0x3d3bf6dc	0.04588972
156	0xbd3c04bd	-0.045902956
157	0x3d6f2106	0.058381103
158	0xbcb2e451	-0.021837385
159	0x3c93d442	0.018045548
160	0xbcebe1d4	-0.028794207
161	0x3d2334d3	0.0398453
162	0xbdcc89ed	-0.09987245
163	0xbd0f9b39	-0.03506014
164	0x3c312110	0.010811105
165	0xbd96d269	-0.07364351
166	0xbdba7c4c	-0.09105739
167	0x3d01d8e4	0.031700984
168	0xbc9ead40	-0.019369721
169	0x3caff988	0.02148129
170	0x3d3587d8	0.044319004
171	0xbbc1d40b	-0.00591517
172	0x3c2efd6c	0.010680538
173	0x3d973d96	0.073847935
174	0xbc0e4c44	-0.008685175
175	0xba96b30d	-0.0011497453
176	0xbdcc1e75	-0.09966747
177	0xbcfe7a4c	-0.031064175
178	0xbd9a455f	-0.07532763
179	0xbc8481fd	-0.016175264
180	0xbd9f2d11	-0.077722676
181	0x3c8f6360	0.01750344
182	0x3b3668ee	0.002783354
183	0xbd5162ea	-0.051119722
184	0xbb80734c	-0.0039199945
185	0xbd3ca7b1	-0.04605836
186	0xbcfa80ad	-0.030578936
187	0x3c5ca420	0.013466865
188	0xbc0d37f7	-0.0086193
189	0x3d6ac550	0.057317078
190	0x3db46fa2	0.08810355
191	0xbd0871c6	-0.033311628
192	0xbd4fc468	-0.050724417
193	0xbcaaec7b	-0.020864716
194	0x3ba4615d	0.0050164894
195	0x3a94184f	0.0011298748
196	0x3d5a1e99	0.053251836
197	0x3d14597b	0.036218148
198	0x3d055cd9	0.03255925
199	0xbd24296e	-0.040078573
200	0x3c953dbb	0.018217912
201	0xbc47de3b	-0.01219898
202	0x3d3b9d64	0.045804396
203	0xbcd832c9	-0.026391404
204	0xbd8d0da6	-0.06887369
205	0x3c4940b0	0.012283489
206	0xbcd73777	-0.026271565
207	0xbd03136c	-0.032000944
208	0xbad4aa63	-0.0016225096
209	0xbaed353d	-0.0018097531
210	0x3d690d4f	0.056897458
211	0xbad17061	-0.0015978926
212	0xbcff8781	-0.031192543
213	0x3b85ce24	0.004083412
214	0x3d1e0786	0.038581394
215	0x3cd2bc21	0.025724472
216	0x3d3a0153	0.04541142
217	0xbd68e6e8	-0.056860834
218	0xbcd12bbb	-0.025533548
219	0xbd0d1aa9	-0.034449253
220	0x3d0f97d9	0.035056923
221	0x3c112e06	0.0088610705
222	0xbcc853a9	-0.024453955
223	0xbc6c61bf	-0.014427601
224	0x3d02d905	0.031945247
225	0xbd0f5798	-0.034995645
226	0xbb81fd5f	-0.0039669718
227	0xbd3afe8e	-0.04565292
228	0x3d23378c	0.039847896
229	0xbc82baf5	-0.015958289
230	0x3c5094bd	0.0127307745
231	0x3d4deebe	0.05027651
232	0xbd87fc6c	-0.066399425
233	0xbced5eac	-0.028975807
234	0xbacca62c	-0.0015613488
235	0xbd20016a	-0.03906385
236	0xbd020f0c	-0.03175263
237	0xbbe6ab83	-0.0070394888
238	0x3c5b29db	0.013376678
239	0x3b17cca2	0.0023162742
240	0x3be9a59e	0.007130339
241	0xbc3fa189	-0.011696228
242	0xbd308036	-0.04309102
243	0x3d349c46	0.044094346
244	0xbd8d9ebe	-0.06915043
245	0xbd5d125b	-0.053972583
246	0xbd20b2ba	-0.039232947
247	0x3da3e11a	0.08001919
248	0xbdaf1c2d	-0.08550296
249	0xbce60d8b	-0.02808263
250	0x3cd586fb	0.02606534
251	0xbc43a277	-0.01194059
252	0xbda575a2	-0.08079077
253	0xbc351976	-0.011053434
254	0x3d8610a8	0.06546146
255	0x3d2975b6	0.041372024

fc1.bias f4 [50]
0	0xbc9a0637	-0.018801792
1	0xbd1b6d58	-0.037946075
2	0xbd73e2bc	-0.059542403
3	0x3c419fa1	0.011817844
4	0x3d4983c3	0.049197923
5	0x3bed4523	0.0072409078
6	0x3caced71	0.021109315
7	0xbb0f18bd	-0.0021834814
8	0x3d705c47	0.058681753
9	0x3d51e297	0.051241484
10	0x3ce1529d	0.027505213
11	0x3ae24d48	0.0017265463
12	0x3cb933a2	0.022607628
13	0xbcb8d785	-0.022563705
14	0xbce8dcd5	-0.028425613
15	0xbcb8d25f	-0.02256125
16	0xbcdb1962	-0.026745502
17	0x3d607037	0.054794516
18	0x3c09d9d0	0.008413747
19	0x3ccf019c	0.025269322
20	0x3d0b3063	0.033981692
21	0x3d119d7f	0.03555059
22	0xbc2c702f	-0.0105247935
23	0x3ce56a6b	0.028004846
24	0xbd0dc42a	-0.034610905
25	0xbca7d36e	-0.02048656
26	0x3d07a5ac	0.03311698
27	0xbd109828	-0.035301358
28	0xbd26a3d9	-0.0406836
29	0xbd108c7f	-0.035290238
30	0xbcfe0b46	-0.031011235
31	0xbcf09e56	-0.029372375
32	0x3ccc2be7	0.024923278
33	0x3cea4fa5	0.02860243
34	0x3bc95f15	0.006145368
35	0x3b85dd59	0.0040852246
36	0x3d129fa6	0.035796784
37	0x3d2c6496	0.042088114
38	0xbc0bdda4	-0.00853673
39	0x3cd649f5	0.026158312
40	0xbb4e90fc	-0.0031519523
41	0x3b4013e0	0.0029308721
42	0xbc93df0d	-0.018050695
43	0x3bbda8eb	0.005787959
44	0x3d7ea1ee	0.062166147
45	0xb93bf93a	-0.00017926554
46	0x3d069a47	0.032861974
47	0x3cd4b63f	0.025965808
48	0x3ce35e0c	0.027754806
49	0x3d426c01	0.04746628

fc2.weight f4 [10, 50]
0	0xbc938d0a	-0.018011589
1	0x3df3f40c	0.119117826
2	0x3debe264	0.1151779
3	0x3e091318	0.1338619
4	0x3e53430e	0.20631048
5	0xbdfc317e	-0.123141274
6	0xbe2a6912	-0.16641644
7	0xbcc056d4	-0.023478903
8	0xbe8ab27e	-0.27089304
9	0x3e24daed	0.16099139
10	0xbe317c10	-0.17332482
11	0xbdc25062	-0.09487988
12	0xbda186f6	-0.0788707
13	0xbe621d0d	-0.22081394
14	0xbe3f7c88	-0.18699849
15	0x3e1f09cb	0.1553108
16	0xbe52bfec	-0.20581025
17	0x3e1ff03f	0.1561899
18	0xbc4aead0	-0.012385085
19	0x3e12f9a7	0.14353047
20	0x3ddb8492	0.10718645
21	0xbe3c49d7	-0.18387543
22	0xbe210621	-0.15724994
23	0x3cef3f50	0.029204994
24	0x3da55725	0.08073262
25	0x3c97de62	0.018538658
26	0x3cd70376	0.026246767
27	0xbe052217	-0.13001285
28	0x3dd66c8f	0.10469925
29	0x3e13e234	0.14441758
30	0xbda3858f	-0.07984459
31	0xbe05219a	-0.13001099
32	0x3da15319	0.07877178
33	0xbc824ccd	-0.015905762
34	0x3e162d9d	0.14665838
35	0xbdfce808	-0.12348944
36	0xbd3ac68d	-0.04559951
37	0xbd53182d	-0.051536728
38	0xbe4d04b8	-0.20021331
39	0xbba5157d	-0.005037962
40	0x3dc16fcc	0.09445152
41	0xbddf1908	-0.10893446
42	0x3e4168a0	0.18887568
43	0xbd8b3ab0	-0.06798303
44	0xbe34374f	-0.17599224
45	0x3e6929b8	0.2276982
46	0x3d996003	0.07489016
47	0xbe44baab	-0.19211833
48	0x3ddbaf4c	0.107267946
49	0x3e0c376e	0.1369302
50	0x3e3f394d	0.18674202
51	0xbe774674	-0.2414797
52	0xba96e883	-0.0011513386
53	0xbcb15bf0	-0.021650285
54	0xbe18e640	-0.14931583
55	0xbde6e694	-0.11274448
56	0xbe26d3c8	-0.16291726
57	0x3dfba857	0.12287968
58	0xbd42b337	-0.047534194
59	0xbe1b6faf	-0.15179323
60	0x3e4944fb	0.1965522
61	0x3e3f4a2a	0.18680635
62	0x3e572d7d	0.21013446
63	0x3df599e4	0.11992243
64	0xbe14dd2a	-0.14537492
65	0x3ccbf954	0.024899162
66	0x3e02195e	0.1270499
67	0xbe3acbeb	-0.18241851
68	0xbdb61db4	-0.08892384
69	0xbd840f09	-0.0644818
70	0xbc3269fb	-0.0108895255
71	0x3de26b99	0.11055679
72	0x3bd9c6fe	0.006646036
73	0x3e89b2c9	0.26894215
74	0xbd84062c	-0.0644649
75	0x3e1b261c	0.15151256
76	0xbdb5bc3e	-0.08873795
77	0x3e1b85fd	0.15187831
78	0xbe3cf755	-0.18453725
79	0xbe1ec90c	-0.15506381
80	0x3e12498a	0.14285865
81	0xbc4c60ae	-0.012474222
82	0xbd3af200	-0.045640945
83	0xbd185e35	-0.037199218
84	0xbcd2b538	-0.025721177
85	0xbe11c154	-0.14233905
86	0x3e4d8e6c	0.20073861
87	0x3ea9e179	0.33179834
88	0x3e252c46	0.1613017
89	0x3c6fe835	0.014642765
90	0xbe2daf47	-0.16961394
91	0x3da3f3e4	0.08005503
92	0xbdca0631	-0.09864462
93	0x3c4777ce	0.01217456
94	0x3e413fbb	0.18871967
95	0xbdde53ce	-0.10855828
96	0xbc44f68e	-0.012021674
97	0xbdc1851e	-0.09449218
98	0xbdc15e3b	-0.09441801
99	0x3cfbe0a8	0.030746773
100	0x3baaa75f	0.0052079405
101	0xbdc060d9	-0.09393472
102	0xbd86731e	-0.065649256
103	0xbc2304c4	-0.009949867
104	0xbe146de5	-0.14495046
105	0x3e30d32b	0.17268054
106	0x3c13d582	0.009023072
107	0x3e2d6ba0	0.16935587
108	0xbe6332ed	-0.22187395
109	0x3d0188d5	0.031624634
110	0x3c1d0c2c	0.0095854215
111	0xbdb48b18	-0.088155925
112	0x3db7df64	0.08978155
113	0xbe3543f2	-0.177017
114	0x3c02d9da	0.00798651
115	0x3d8d5298	0.06900519
116	0x3e3418e8	0.17587626
117	0x3e27d5df	0.16390179
118	0xbe1e72c4	-0.15473467
119	0x3ddeb372	0.1087407
120	0x3ce90d3e	0.028448697
121	0xbe2fdd8e	-0.1717436
122	0xbe56a60b	-0.20961778
123	0xbdfe5cbb	-0.12420031
124	0x3c26c420	0.010178596
125	0x3e2e3516	0.17012438
126	0x3dd53d9e	0.10412143
127	0x3e191830	0.14950633
128	0x3e06321a	0.1310505
129	0x3e1a89ed	0.15091677
130	0xbd1bb0c2	-0.038010366
131	0xbd2f4b53	-0.042796444
132	0xbd5ac0e0	-0.053406596
133	0x3dfa61ac	0.12225661
134	0x3c9cae26	0.01912601
135	0xbdc86a84	-0.09785941
136	0x3d4295d4	0.04750617
137	0x3d85c0ed	0.06530938
138	0xbda5b978	-0.08092016
139	0xbe10e6e0	-0.14150572
140	0xbe42f0f4	-0.19037229
141	0x3df6375b	0.12022277
142	0x3e4ae08b	0.19812219
143	0x3d776838	0.060402125
144	0x3e478bc3	0.19486909
145	0xbdcc2929	-0.09968788
146	0x3dea22a2	0.11432387
147	0xbd8691e0	-0.06570792
148	0x3b5da7e9	0.0033822006
149	0x3e035945	0.12827022
150	0x3c3c8173	0.0115054725
151	0x3cdbba06	0.026822101
152	0x3dde22a4	0.10846451
153	0x3e28c805	0.16482551
154	0xbdedcabd	-0.11610935
155	0x3d9de916	0.07710473
156	0xbc86efb2	-0.016471718
157	0x3e265dae	0.16246673
158	0x3d414ab3	0.04719038
159	0xbd132c38	-0.035930842
160	0xbe2bb0eb	-0.16766708
161	0xbe1beb31	-0.15226437
162	0xbdf87910	-0.12132466
163	0x3e25032d	0.16114493
164	0x3e364d27	0.17802869
165	0xbdf7e6de	-0.12104581
166	0x3dedce12	0.116115704
167	0xbd88983f	-0.06669664
168	0xbdcbcd33	-0.09951248
169	0x3dd06e56	0.10177295
170	0xbb4fcabe	-0.0031706537
171	0xbe124484	-0.14283949
172	0xbdc0facc	-0.09422836
173	0xbe3d9004	-0.18511969
174	0xbc5ce461	-0.013482184
175	0x3e1ada84	0.1512242
176	0xbe0174b5	-0.12642176
177	0xbd53d456	-0.05171617
178	0x3df9892d	0.12184367
179	0xbe0ed6c3	-0.13949113
180	0xbdab0533	-0.08350601
181	0x3e33838e	0.17530653
182	0xbd398fa0	-0.045302987
183	0xbe0f6e64	-0.14006954
184	0xbde8d9c0	-0.113696575
185	0xbdc5e712	-0.09663214
186	0x3e517885	0.20456131
187	0xbd33e40b	-0.04391865
188	0x3e2f8113	0.17139082
189	0xbd552673	-0.05203862
190	0xbe0a0553	-0.13478594
191	0x3be4901f	0.0069751884
192	0xbd4ad281	-0.04951716
193	0x3e36151d	0.17781492
194	0xbd815535	-0.0631508
195	0xbd669185	-0.056291122
196	0x3dae829f	0.08521008
197	0x3afc819c	0.0019264701
198	0xbe0fb259	-0.14032878
199	0x3dfecb1e	0.12441085
200	0xbc8a71ac	-0.016899906
201	0xbe5aea41	-0.21378423
202	0x3dc68973	0.09694185
203	0xbe308412	-0.17237881
204	0xbddc9d96	-0.10772245
205	0x3e2bbadd	0.16770501
206	0x3e606134	0.2191208
207	0xbd60f755	-0.054923374
208	0x3de9410f	0.11389362
209	0xbde23cb1	-0.11046732
210	0x3e0fc65e	0.14040515
211	0xbbc0e9e7	-0.0058872583
212	0x3da7f00c	0.08200082
213	0x3d8ff99a	0.070300296
214	0x3e4c6a39	0.19962396
215	0xbc9de506	-0.019274246
216	0xbe006440	-0.12538242
217	0x3e440183	0.19141202
218	0x3e3774c3	0.17915635
219	0xbde38243	-0.1110883
220	0x3cde14f0	0.027109593
221	0x3d9142d5	0.07092825
222	0x3df0c812	0.117569104
223	0xbdfe89ae	-0.12428604
224	0xbd5badb4	-0.053632453
225	0xbe70ebc3	-0.23527436
226	0xbdab9bea	-0.083793476
227	0x3e052fb9	0.13006486
228	0xbdb43aa1	-0.08800245
229	0x3e3bc4b9	0.18336762
230	0x3df6489c	0.12025568
231	0xbd9e0d66	-0.07717399
232	0x3de073c7	0.10959583
233	0x3e9899d7	0.2980487
234	0xbe3b39e9	-0.1828381
235	0x3df1aeae	0.11800896
236	0xbdd26ee1	-0.10275055
237	0xbd1a4e37	-0.037672248
238	0xbcf649c1	-0.030064465
239	0xbe20670b	-0.15664308
240	0xbd67e78b	-0.0566173
241	0x3d06f241	0.032945875
242	0xbdcb0036	-0.099121496
243	0xbd1f6ad4	-0.03892024
244	0xbdaf9d7a	-0.08574958
245	0xbde0f26b	-0.109837376
246	0xbdbb3578	-0.09141058
247	0x3e44ef4e	0.19231912
248	0x3ced3d51	0.028959902
249	0xbe493ba9	-0.19651665
250	0xbdb259e6	-0.08708553
251	0x3dbfcaef	0.093648784
252	0xbcdd94cd	-0.027048493
253	0x3e0cf41c	0.13764995
254	0xbdfe53f0	-0.124183536
255	0xbe39806e	-0.18115398

fc2.bias f4 [10]
0	0x3d3a448d	0.04547553
1	0xbd2e662a	-0.0425779
2	0xbd5fd545	-0.05464675
3	0x3da9c610	0.082897305
4	0x3d95b218	0.07309359
5	0x3dc34e35	0.09536401
6	0xbd5c3759	-0.05376372
7	0x3dba35af	0.090922706
8	0x3c55b5f4	0.013043869
9	0x3d68232e	0.056674175
