model_opt.pth (torch_old, 195735 bytes, 8 tensors)

conv1.weight f4 [22, 1, 8, 8]
0	0xbe0ae33e	-0.13563249
1	0x3e2862d6	0.16443953
2	0x3e52ba69	0.20578922
3	0x3e25e946	0.16202268
4	0x3e38c079	0.18042172
5	0xbdcb2076	-0.09918301
6	0xbd78ba51	-0.06072456
7	0xbe0180f5	-0.1264685
8	0xbdab676f	-0.08369338
9	0xbc92ab0a	-0.017903823
10	0x3e25c050	0.16186643
11	0x3c916541	0.017748477
12	0xbe9f2b6d	-0.3108782
13	0xbea75411	-0.32681325
14	0xbdcd69e4	-0.10029963
15	0xbe100edc	-0.14068168
16	0xbc2cb736	-0.010541728
17	0x3dd2ead2	0.10298695
18	0xbdd7bf55	-0.105345406
19	0x3eab0bb5	0.3340737
20	0xbde76302	-0.11298181
21	0xbe925219	-0.2857826
22	0xbe702d04	-0.23454672
23	0xbe5ed1c8	-0.21759713
24	0x3dc91cab	0.09819921
25	0xbe3c4361	-0.18385078
26	0xbe957e48	-0.29197907
27	0x3d3edd84	0.046597973
28	0x3d646902	0.055764206
29	0xbe1c3f5f	-0.15258549
30	0xbe21f5b8	-0.1581639
31	0xbee13db8	-0.439924
32	0xbd4cc483	-0.049992096
33	0xbebe554f	-0.3717446
34	0xbdd5692e	-0.10420452
35	0x3c35a5eb	0.011086921
36	0x3e115137	0.14191137
37	0x3e0c448a	0.1369802
38	0x3b0039c2	0.0019565676
39	0xbef10309	-0.47072628
40	0x3e01e4a7	0.1268488
41	0xbea10c01	-0.3145447
42	0xbe60bc60	-0.2194686
43	0x3d94c03c	0.07263228
44	0x3e437472	0.19087389
45	0x3ddb83a2	0.10718466
46	0x3e4a261b	0.19741099
47	0xbebeb43a	-0.37246877
48	0x3e105c13	0.14097624
49	0xbea61f1f	-0.3244562
50	0xbea66ed9	-0.32506445
51	0x3dbc76ca	0.09202345
52	0x3e2025ce	0.15639421
53	0x3c5b257a	0.013375634
54	0x3dd0f20c	0.10202417
55	0xbdda4772	-0.10658158
56	0x3e4a2da8	0.19743979
57	0xbe9a16d9	-0.30095556
58	0xbdc8b8ef	-0.09800898
59	0xbdbd2b7d	-0.0923681
60	0x3d345e7e	0.044035427
61	0xbc1bc476	-0.009507289
62	0xbce3c331	-0.027803035
63	0xbd60fa0f	-0.054925974
64	0xbdf2dbce	-0.11858331
65	0x3b8b907b	0.004259167
66	0x3b12c520	0.0022395328
67	0x3db10546	0.08643584
68	0x3e7be70e	0.24599859
69	0x3e26dbfd	0.16294856
70	0x3e19b33f	0.15009783
71	0x3e85bf55	0.26122537
72	0xbd3e1950	-0.04641086
73	0xbe196baf	-0.14982484
74	0xbe1fc39d	-0.15601964
75	0xbe5ce86c	-0.21573037
76	0xbe652601	-0.22377779
77	0xbd34e481	-0.04416323
78	0xbbfdf16e	-0.007749728
79	0x3eaddacd	0.33955994
80	0xbe0eabf3	-0.13932781
81	0xbd7f494f	-0.062325772
82	0xbe545d38	-0.20738685
83	0xbe52cd97	-0.20586239
84	0xbeb46df2	-0.35240132
85	0xbf10d61b	-0.565767
86	0xbea86832	-0.32891995
87	0x3ec82b18	0.39095378
88	0x3dfe6b2d	0.12422786
89	0xbbf23acc	-0.007392263
90	0x3ca4ebab	0.020131906
91	0x3ece6483	0.4031106
92	0x3e4e2ae8	0.20133555
93	0xbedd0755	-0.43169656
94	0xbf2ca4f7	-0.67439216
95	0xbe6b4477	-0.22975336
96	0x3d31bffd	0.043395985
97	0x3df8a2a8	0.12140399
98	0xbd5090d5	-0.050919373
99	0x3d4f4d2b	0.050610702
100	0x3f07c5f3	0.5303642
101	0x3e915af5	0.28389707
102	0xbe695776	-0.2278727
103	0xbecbc975	-0.39802137
104	0xbd37b0e0	-0.044846416
105	0x3dfa11bb	0.12210413
106	0xbe2847a2	-0.16433576
107	0xbe84cb3a	-0.259363
108	0x3e5be2a6	0.21473178
109	0x3e42e5d9	0.19032992
110	0xbdc21b04	-0.09477809
111	0xbe13510a	-0.14386383
112	0xbcc33e68	-0.023833469
113	0xbca10929	-0.019657688
114	0xbc11aa12	-0.008890646
115	0xbe85668e	-0.26054806
116	0xbe633103	-0.22186665
117	0x3e8692e7	0.26283953
118	0x3e87fde4	0.2656089
119	0x3df9791b	0.12181302
120	0xbe9be69a	-0.30449373
121	0xbdbef04a	-0.09323175
122	0x3d0d7af9	0.034541104
123	0xbe2b8a3b	-0.1675195
124	0xbbdc1076	-0.0067158295
125	0x3d7088be	0.058724158
126	0x3dde6011	0.10858167
127	0xbe0d7d62	-0.13817361
128	0xbe42b46a	-0.19014135
129	0xbc1e897d	-0.009676334
130	0x3e3cc893	0.18435888
131	0xbd40e14d	-0.047089864
132	0xbda03cab	-0.078240715
133	0x3e0466b5	0.12929805
134	0x3e760466	0.24025115
135	0xbdc9423f	-0.098270886
136	0xbe9c9686	-0.3058359
137	0xbd4e739e	-0.05040323
138	0x3df99e30	0.12188375
139	0xbdd6aaee	-0.10481821
140	0x3e342f3b	0.17596142
141	0x3e2091c1	0.156806
142	0x3bbedc6e	0.005824617
143	0xbe7f00c1	-0.24902631
144	0xbd6c28ad	-0.05765598
145	0xbd494b40	-0.04914403
146	0xbca2e551	-0.019884737
147	0xbd511316	-0.051043592
148	0x3d0aef17	0.03391942
149	0x3dae500a	0.0851136
150	0x3db69d22	0.089166895
151	0xbeac7b67	-0.336879
152	0xbc510c99	-0.012759351
153	0xbe3ef39e	-0.1864762
154	0xbe33438e	-0.17506239
155	0xbd45895e	-0.048226707
156	0xbd5028f8	-0.05082032
157	0xbdc2dc08	-0.09514624
158	0xbb933428	-0.0044923015
159	0x3b2375ba	0.0024941997
160	0xbd2714ed	-0.04079144
161	0x3d55eeea	0.0522298
162	0x3d840322	0.0644591
163	0xbda0e2a4	-0.07855728
164	0xbdfbc309	-0.122930594
165	0xbe007abb	-0.12546818
166	0xbdd072dd	-0.101781584
167	0xbe7d0192	-0.2470763
168	0xbe232426	-0.15931758
169	0x3c814927	0.015781952
170	0x3d948b62	0.07253148
171	0xbe918b76	-0.28426713
172	0xbe14ba8b	-0.14524285
173	0xbe421a4f	-0.18955348
174	0xbde292c3	-0.11063149
175	0xbee7f498	-0.45303798
176	0x3e2dc5e8	0.16970026
177	0x3caab344	0.020837434
178	0xbda47b2c	-0.08031306
179	0xbe9268a5	-0.28595462
180	0xbeda7a97	-0.42671654
181	0xbe3a5a69	-0.18198551
182	0x3dca59c3	0.09880402
183	0xbe7ce5fd	-0.24697109
184	0xbcd5852b	-0.026064476
185	0x38722600	5.7732686e-05
186	0x3e7f8327	0.24952374
187	0x3ea09c91	0.3136945
188	0x3ea7b40b	0.3275455
189	0x3e2bee86	0.16790208
190	0x3e3da149	0.18518557
191	0x3e8c45d8	0.27397037
192	0x3adfefcd	0.0017085016
193	0xbe007d52	-0.12547806
194	0x3d77c3e4	0.06048955
195	0xbc0d2789	-0.008615383
196	0xbb0b2308	-0.0021230597
197	0xbd92976e	-0.07157789
198	0x3d595251	0.05305702
199	0x3d5fd246	0.05464389
200	0xbd33440c	-0.043766066
201	0xbc935610	-0.017985374
202	0xbc3dc955	-0.011583646
203	0xbe8222cd	-0.25417176
204	0xbec7635d	-0.38942996
205	0xbed4fe49	-0.41600254
206	0xbecad53a	-0.39615804
207	0xbe6406be	-0.22268197
208	0xb9c99342	-0.00038447423
209	0xbd1791bf	-0.03700423
210	0xbe4b404f	-0.1984875
211	0xbe8fbf9f	-0.28075883
212	0xbe68438b	-0.22682016
213	0x3e263c46	0.1623393
214	0x3e45121a	0.19245186
215	0x3e283707	0.16427241
216	0xbd875cd1	-0.066095
217	0xbe885003	-0.26623544
218	0xbe812e93	-0.25230846
219	0xbd09e095	-0.033661444
220	0x3e6ab77a	0.22921553
221	0x3eb05c26	0.34445304
222	0x3ba920b6	0.00516137
223	0xbc3ec48a	-0.011643538
224	0xbdc38c60	-0.09548259
225	0xbe4fe1da	-0.20301
226	0xbdb236df	-0.08701872
227	0x3daf103e	0.0854802
228	0xbd8d5ed8	-0.06902856
229	0xbdc1f36e	-0.09470259
230	0xbdd5ce14	-0.10439697
231	0x3ccd9fbf	0.025100587
232	0xbe06d8d6	-0.13168654
233	0xbdee0fdb	-0.11624118
234	0x3e3e9312	0.1861079
235	0x3df7d289	0.12100703
236	0xb9c80e38	-0.00038157566
237	0x3dbfc6d9	0.09364099
238	0x3e3415fb	0.1758651
239	0x3dae1f8f	0.08502113
240	0xbeabafa6	-0.33532447
241	0xbdcd5156	-0.10025279
242	0x3e65cf7e	0.22442433
243	0xbd8cb20d	-0.06869898
244	0xbb089656	-0.002084156
245	0x3e4d1b42	0.2002993
246	0x3da6e79b	0.08149644
247	0xbe9a3b03	-0.30123147
248	0xbe868aca	-0.26277763
249	0x3e0eb5be	0.13936517
250	0x3bf0b3ae	0.0073456382
251	0xbe1a6d28	-0.15080702
252	0xbdeeb3bb	-0.116553746
253	0xbb81c99a	-0.0039608004
254	0xbdbb0216	-0.09131257
255	0xbf10a904	-0.565079

conv1.bias f4 [22]
0	0xbfcd6b4e	-1.6048372
1	0xbfcfaa8a	-1.6223919
2	0xbfef166f	-1.8678721
3	0xbfd7ac96	-1.6849544
4	0xbff014c3	-1.8756336
5	0xbfad3c3c	-1.3534007
6	0xbf560bfe	-0.8361205
7	0xbfe57594	-1.7926507
8	0xbfb4bb5a	-1.4119675
9	0xbfb12748	-1.3840113
10	0xbfb31b61	-1.399273
11	0xbfa62c02	-1.298218
12	0xbf2f7266	-0.68533933
13	0xbf5da7e7	-0.86584324
14	0xbfecc5dd	-1.8497883
15	0xbf5a571d	-0.85289174
16	0xbfa70e7e	-1.3051298
17	0xbf78471c	-0.96983504
18	0xbfab6ea9	-1.3393146
19	0xbfbfb6ee	-1.4977701
20	0xbf646529	-0.8921686
21	0xbf7ebd78	-0.99507856

conv2.weight f4 [25, 22, 6, 6]
0	0x3d8e73d3	0.069556855
1	0xbdfa27bf	-0.12214612
2	0xbe111df1	-0.14171578
3	0xbe791c06	-0.24327096
4	0xbe5f89f0	-0.21829963
5	0xbe37e2f8	-0.17957675
6	0xbcbd5f49	-0.023116725
7	0xbd70d83d	-0.05879997
8	0xbd7faae8	-0.06241885
9	0xbdc57b1f	-0.09642624
10	0xbe04b567	-0.12959825
11	0xbe7fd29b	-0.24982683
12	0xbbf976c1	-0.0076130335
13	0x3d4026e3	0.046912085
14	0xbda8ad5c	-0.08236191
15	0xbe13765b	-0.14400618
16	0xbd6bd623	-0.057577264
17	0xbe139602	-0.14412692
18	0xbc3786e8	-0.011201598
19	0xbcbbc6bf	-0.022921918
20	0xbc94329a	-0.018090535
21	0xbe62859f	-0.22121285
22	0xbd1952f8	-0.03743264
23	0xbde25b5e	-0.11052583
24	0xba6e2b6e	-0.0009085451
25	0x3caca34a	0.021073956
26	0x3d62b220	0.055345654
27	0xbd90fca3	-0.07079437
28	0xbc7f9aec	-0.015600901
29	0xbdf55636	-0.11979334
30	0xbd8f9e17	-0.07012575
31	0xbcdbd737	-0.02683602
32	0x3c85c82f	0.016330807
33	0xbc187813	-0.009305972
34	0x3c81af0d	0.015830541
35	0xbdfc3e5b	-0.12316581
36	0xbd56835a	-0.05237136
37	0xbde9a2de	-0.114080176
38	0x3be76686	0.0070617823
39	0xbda2d380	-0.07950497
40	0xbdd62cbe	-0.10457753
41	0xbeb9492f	-0.36188647
42	0xbdc3fa5f	-0.09569239
43	0xbd90f675	-0.07078258
44	0x3d32f2b0	0.043688476
45	0x3ba63ba1	0.0050730263
46	0xbd834590	-0.06409752
47	0xbe8cd729	-0.27507904
48	0xbd135bfb	-0.03597639
49	0x3dc59990	0.0964843
50	0x3d1612f7	0.03663918
51	0x3dfb2bfc	0.12264249
52	0x3e2821b9	0.16419114
53	0xbe2c4c36	-0.16825947
54	0xbe18df16	-0.1492885
55	0xbe203c76	-0.15648064
56	0xbdb7b46b	-0.08969959
57	0x3db78d6e	0.089625224
58	0xbd768e95	-0.06019457
59	0xbd9104c0	-0.07080984
60	0xbddabb27	-0.10680228
61	0xbe3e4cd8	-0.18584001
62	0xbe3e5aae	-0.18589279
63	0xbd9ace89	-0.07558925
64	0xbd3624f2	-0.044468828
65	0xbe153867	-0.14572297
66	0xbda00d72	-0.078150645
67	0xbd9a46d4	-0.07533041
68	0xbe49274c	-0.19643897
69	0xbd9907f8	-0.07472223
70	0x3c3734c5	0.011182015
71	0xbd4d3b33	-0.050105285
72	0xbd54789b	-0.05187283
73	0x3ca16176	0.019699793
74	0xbce27e0f	-0.027648
75	0xbe3c334f	-0.18378948
76	0xbe7c9df8	-0.24669635
77	0xbe6aeaed	-0.2294118
78	0xbdaf12ae	-0.08548485
79	0x3dccff82	0.10009672
80	0x3cab3456	0.02089898
81	0xbdbaa414	-0.09113327
82	0xbe2fda9f	-0.17173241
83	0xbe524ce2	-0.20537141
84	0xbdcabe13	-0.09899535
85	0xbd69bf37	-0.057067122
86	0xbdb666dc	-0.089063376
87	0xbdaeb7cc	-0.0853115
88	0xbdd41af5	-0.10356704
89	0xbd445e8b	-0.047941726
90	0xbdba4717	-0.090955906
91	0xbd812ba3	-0.06307151
92	0xbdb0d0fd	-0.08633611
93	0x3e2938e3	0.16525607
94	0x3db28ec7	0.08718639
95	0x3c7874af	0.015164538
96	0xbd28ec4c	-0.041240975
97	0xbde6e024	-0.1127322
98	0xbdb11b00	-0.08647728
99	0xbd631228	-0.055437237
100	0xbcc26117	-0.023727937
101	0xbe0cc9f7	-0.13748918
102	0x3e4b7e69	0.1987244
103	0xbd27e5e5	-0.04099073
104	0xbe1dea10	-0.15421319
105	0xbe3b866c	-0.18312997
106	0xbe00cba1	-0.12577678
107	0xbe8b8ded	-0.27256718
108	0x3e07e83c	0.13272184
109	0x3d41832d	0.04724424
110	0xbc4db841	-0.012556137
111	0x3d031dd5	0.032010872
112	0x39abce8e	0.00032769557
113	0x3e057f8d	0.13036938
114	0xbdc150a9	-0.09439213
115	0xbdfbe8ae	-0.123002395
116	0x3c9f5401	0.019449236
117	0xbd8d2387	-0.06891542
118	0xbd1f452d	-0.03888433
119	0xbe2bd960	-0.1678214
120	0xbbc2bdf2	-0.0059430534
121	0x3e2a03c5	0.16603
122	0x3ba4c4aa	0.005028327
123	0xbd308ca8	-0.04310289
124	0xbe68aad8	-0.22721422
125	0xbb81d7b1	-0.00396248
126	0xbd937545	-0.07200102
127	0xbc575fb7	-0.013145379
128	0x3db380a9	0.08764774
129	0x3dbd1dda	0.09234209
130	0x3de3b1d5	0.11117903
131	0xbd4630a3	-0.048386227
132	0xbd8a3152	-0.06747688
133	0x3e16210d	0.14661045
134	0x3e27da8c	0.16391963
135	0x3e5cfca8	0.21580756
136	0x3db30380	0.08740902
137	0xbde9da01	-0.11418534
138	0xbcd0e73a	-0.025500882
139	0xbd969470	-0.07352531
140	0x3d5113e4	0.05104436
141	0x3d847bff	0.06468963
142	0xbdd8ca6f	-0.10585486
143	0xbe06ca32	-0.13163069
144	0xbddc1d78	-0.10747808
145	0x3d5b02b5	0.05346938
146	0x3d132849	0.03592709
147	0x3c2680ec	0.010162573
148	0x3da2053b	0.07911154
149	0x3d075208	0.033037215
150	0xbe8c38ed	-0.2738718
151	0xbe44e3e8	-0.19227564
152	0xbccfa4e3	-0.025347179
153	0x3d01542b	0.03157441
154	0xbd2dd327	-0.0424377
155	0xbe294727	-0.16531049
156	0xbe114818	-0.14187658
157	0xbc1d1a7f	-0.009588837
158	0x3dc97fe4	0.09838846
159	0x3d0a8d37	0.03382608
160	0xbd69e65d	-0.057104457
161	0x3e0c28ee	0.13687488
162	0xbdf0aa34	-0.11751214
163	0x3c5b7020	0.013393432
164	0x3d68da7b	0.056848984
165	0x3c76ad96	0.015056035
166	0xbdf8a1da	-0.12140246
167	0xbd5832f3	-0.052782964
168	0x3e4afc81	0.19822885
169	0x3e25ba5c	0.16184372
170	0xbdae484a	-0.08509882
171	0xbdd27758	-0.10276669
172	0xbd30b15b	-0.04313789
173	0xbdf0196e	-0.117236
174	0x3ea02966	0.31281585
175	0x3daecfba	0.085357144
176	0xbd35a714	-0.04434879
177	0xbd24961d	-0.04018222
178	0xbda2d405	-0.07950596
179	0xbe461ec5	-0.19347675
180	0xbd038f43	-0.032119047
181	0xbcffd9ee	-0.031231847
182	0x3d0700a0	0.03295958
183	0xbd81f322	-0.06345202
184	0xbb00ad5d	-0.0019634583
185	0x3bbe87f2	0.005814546
186	0x3bd0476c	0.0063561704
187	0x3d30dca8	0.043179184
188	0x3dccdc8c	0.100030035
189	0xbcb18f05	-0.021674642
190	0x3d86b839	0.065781064
191	0xbd678b3d	-0.056529272
192	0xbd6fa271	-0.058504526
193	0xbce53e29	-0.027983742
194	0xbc9e7446	-0.019342553
195	0x3daf9031	0.08572424
196	0xbaff001d	-0.001945499
197	0x3d0507c4	0.03247811
198	0xbcdd81f7	-0.027039511
199	0x3cfcd613	0.030863797
200	0x3db73bac	0.089469284
201	0x3e87a0ed	0.26489964
202	0x3df2260a	0.118236616
203	0xbd4e8671	-0.050421182
204	0xbd1b7034	-0.037948802
205	0xbda7087e	-0.08155917
206	0xbc8099de	-0.01569837
207	0xbd26354f	-0.040578183
208	0xbe2c405f	-0.1682143
209	0xbe153d99	-0.14574279
210	0x3d422a90	0.047403872
211	0xbcf34d54	-0.029699959
212	0xbd48c891	-0.0490194
213	0xbdf29e9a	-0.11846657
214	0xbda992b8	-0.082799375
215	0xbd009635	-0.03139325
216	0xbd7190ca	-0.058975972
217	0xbd95f032	-0.07321204
218	0xbc83cb30	-0.016088098
219	0xbdb6cce4	-0.089257985
220	0xbdc89fee	-0.09796129
221	0xbdf06467	-0.117379
222	0xbcf89786	-0.03034569
223	0xbd238dc9	-0.03993014
224	0x3d96630a	0.07343109
225	0xbcf2f313	-0.029656922
226	0xbe092239	-0.13391961
227	0xbd9b5116	-0.07583825
228	0x3b535b9c	0.0032250648
229	0x3b8629c3	0.004094334
230	0x3d521ce9	0.051297102
231	0x3d954f76	0.072905466
232	0x3cfcd6df	0.030864177
233	0x3d35eb6f	0.04441398
234	0x3d16d614	0.036825255
235	0xbd15a99a	-0.036538698
236	0xbc926188	-0.017868772
237	0x3d09ea16	0.033670507
238	0x3dbe4757	0.09290951
239	0x3d7b7a0f	0.0613957
240	0x3ca70513	0.020388162
241	0x3c520dd6	0.012820682
242	0x3d1754d5	0.036946137
243	0xbd42be41	-0.04754472
244	0x3d05792e	0.03258627
245	0x3d2b3a94	0.04180391
246	0xbb55f552	-0.0032647443
247	0x39a53e67	0.00031517746
248	0xbacecc80	-0.0015777498
249	0x3cdf1a80	0.027234316
250	0x3d4ea149	0.050446782
251	0x3d1ec3eb	0.03876106
252	0x3bd713e4	0.0065636504
253	0xbd254664	-0.040350333
254	0xbbc483e5	-0.0059971684
255	0x3d17a9a2	0.03702701

conv2.bias f4 [25]
0	0xbeab302f	-0.334352
1	0xbd87221a	-0.06598301
2	0x3dc1f1c7	0.094699435
3	0xbe5d1292	-0.21589115
4	0xbcd1b708	-0.025599971
5	0xbdc4b425	-0.09604672
6	0x3df3766b	0.11887821
7	0xbe8af4d6	-0.2713992
8	0xbe12aa9f	-0.143229
9	0xbe49e05b	-0.19714491
10	0x3d8d93c7	0.06912952
11	0x3d51b979	0.05120227
12	0x3c20bc54	0.009810526
13	0xbc5fccb3	-0.013659644
14	0xbea2d918	-0.31806254
15	0xbd809766	-0.06278877
16	0xbd974bea	-0.07387526
17	0xbd85d395	-0.06534497
18	0xbe166147	-0.14685546
19	0xbb889bb2	-0.004168951
20	0x3e1f7b96	0.15574488
21	0xbe018f11	-0.12652232
22	0xbdf0f79a	-0.11765976
23	0x3d4bd7a4	0.049766198
24	0xbdd95375	-0.10611621

fc1.weight f4 [46, 100]
0	0xbe1e872f	-0.15481256
1	0x3e4b59f8	0.19858539
2	0xbdcb364a	-0.09922464
3	0x3d8679da	0.0656621
4	0xbd81d16f	-0.063387744
5	0x3e84c8e2	0.2593451
6	0xbbc0e888	-0.005887095
7	0xbd66d53f	-0.05635571
8	0x3d61bca6	0.05511155
9	0xbe8858ca	-0.2663024
10	0x3e32c9fb	0.17459862
11	0x3d4c0364	0.04980792
12	0xbe349c55	-0.17637761
13	0x3d6a47aa	0.05719725
14	0x3d81e5c9	0.06342656
15	0x3d4b792b	0.0496761
16	0xbdf072a5	-0.11740617
17	0x3b217cdb	0.002464107
18	0xbe2cac74	-0.1686266
19	0x3dc391f9	0.095493264
20	0xbd860cdb	-0.06545421
21	0xbeb18c16	-0.3467719
22	0xbc982335	-0.018571476
23	0x3e0f5e8c	0.1400091
24	0x3e5f4b2c	0.2180602
25	0x3e767b91	0.24070574
26	0xbe6813b7	-0.2266377
27	0xbea06d22	-0.31333262
28	0x3e103dce	0.14086077
29	0x3dc4c8ba	0.09608598
30	0x3e1012ce	0.14069673
31	0x3d542e83	0.05180217
32	0x3d1f7a23	0.038934838
33	0x3d8fe42d	0.07025943
34	0x3e282317	0.16419636
35	0xbd788101	-0.060669903
36	0xbdd07abb	-0.10179659
37	0xbe0a0cb3	-0.13481407
38	0xbe95d6e4	-0.2926551
39	0xbe398623	-0.18117575
40	0x3c923d6f	0.01785156
41	0xbe0f837a	-0.14014998
42	0x3df13631	0.11777914
43	0xbda8fc1f	-0.08251213
44	0x3e0356f3	0.12826137
45	0xbe75825e	-0.23975512
46	0x3d829e06	0.06377797
47	0xbe2dbb05	-0.16965874
48	0xbc3ae546	-0.011407202
49	0xbe54f8f2	-0.2079809
50	0x3d9aaa14	0.07551971
51	0xbde9ec71	-0.11422051
52	0xbe15e7ff	-0.1463928
53	0xbe61db9f	-0.22056435
54	0xbe5b7347	-0.21430694
55	0xbd2e804b	-0.04260282
56	0xbd91c277	-0.07117169
57	0x3d48cec7	0.049025323
58	0x3e0285e4	0.12746388
59	0xbe198f89	-0.1499616
60	0xbe8a47cd	-0.27007905
61	0xbd2f7437	-0.04283544
62	0xbe8b43cd	-0.27200165
63	0x3d5090f2	0.05091948
64	0x3e248e80	0.16069984
65	0x3dac7101	0.08419991
66	0xbd366677	-0.04453131
67	0xbd986f70	-0.0744313
68	0xbd8d2fd0	-0.06893885
69	0xbde02b03	-0.10945704
70	0x3da00881	0.07814122
71	0x3e135842	0.14389136
72	0xbd9fdd57	-0.07805889
73	0xbe862a8c	-0.26204336
74	0xbd8e953a	-0.069620565
75	0xbd8a9755	-0.067671455
76	0xbcb63874	-0.022243716
77	0xbe273da2	-0.16332105
78	0xbe1a1ab9	-0.15049256
79	0x3d5affb0	0.0534665
80	0x3d7cadd2	0.061689205
81	0x3d8d2e97	0.06893652
82	0x3e06040a	0.13087478
83	0x3d758c08	0.059947997
84	0xbddc8540	-0.10767603
85	0xbdac946e	-0.08426748
86	0xbd860d80	-0.06545544
87	0x3da9623c	0.0827069
88	0xbe9cbfe4	-0.3061515
89	0x3dc157ed	0.09440599
90	0xbeace8f0	-0.33771467
91	0x3dfc727c	0.12326524
92	0xbe2e69f1	-0.17032601
93	0xbdb34d6f	-0.08755004
94	0xbbbba628	-0.0057265945
95	0x3d46905a	0.048477508
96	0x3e17c918	0.14822805
97	0xbe769912	-0.24081829
98	0x3dd8321b	0.10556432
99	0xbe54285c	-0.20718521
100	0xbd52be9f	-0.05145132
101	0xbe91b6b1	-0.28459695
102	0xbd8ac426	-0.067756936
103	0xbe04c1af	-0.1296451
104	0x3dda2665	0.106518544
105	0xbe4e5598	-0.20149839
106	0xbd95f5ac	-0.07322249
107	0x3d9f7774	0.07786456
108	0xbd9572c3	-0.0729728
109	0xbdc8e654	-0.098095566
110	0x3dc7ca1b	0.097553454
111	0x3cabfe81	0.02099538
112	0x3da54129	0.08069069
113	0x3de6bc4e	0.11266385
114	0x3d61ae42	0.055097826
115	0xbeae64fd	-0.34061423
116	0xbd8a4c73	-0.06752863
117	0x3e51a3c9	0.20472635
118	0xbbaf9904	-0.005358817
119	0xbc3e037c	-0.01159751
120	0x3c3466f8	0.011010878
121	0xbda22eba	-0.07919069
122	0xbe1fe802	-0.15615848
123	0x3d91ab4e	0.07112752
124	0x3d611578	0.054952115
125	0xbd90e425	-0.07074765
126	0x3d9df740	0.07713175
127	0x3e0de91e	0.13858458
128	0x3e5c405b	0.21508925
129	0xbe100fb3	-0.14068489
130	0x3d258a71	0.04041523
131	0xbe08f326	-0.13374004
132	0x3dfc9131	0.123323806
133	0x3c356f10	0.011073843
134	0x3d5d1630	0.053976238
135	0xbe8287ad	-0.25494137
136	0xbcb41727	-0.021983696
137	0xbd3bcb1e	-0.045848005
138	0x3e38c172	0.18042544
139	0xbd9e738c	-0.077368826
140	0xbc9e0f6a	-0.01929446
141	0x3e4680c3	0.19385056
142	0xbdc14ce3	-0.09438493
143	0x3dd04945	0.10170225
144	0x3ccede41	0.025252463
145	0xbeeb9cfe	-0.46018213
146	0x3e73d561	0.23811866
147	0x3dcf172b	0.10111841
148	0xbe1a6412	-0.15077236
149	0xbebaebf0	-0.3650813
150	0x3e51a68d	0.2047369
151	0x3d58b8cf	0.052910622
152	0x3dc580f6	0.09643738
153	0x3d19c184	0.037538067
154	0xbdee59a5	-0.11638192
155	0x3e6ea647	0.23305617
156	0xbc778841	-0.015108169
157	0x3e17240e	0.14759848
158	0xbdd4f8fe	-0.10399054
159	0xbd90e016	-0.07073991
160	0xbe2074d0	-0.1566956
161	0x3df357ca	0.11881979
162	0x3defc75c	0.11707947
163	0xbd17fbf0	-0.0371055
164	0x3dd3c996	0.10341184
165	0xbe68e39e	-0.22743079
166	0x3d935c1c	0.07195303
167	0xbc14d272	-0.009083377
168	0xbb12bbc8	-0.0022389758
169	0xbe5a5a76	-0.2132357
170	0xbcffedef	-0.031241385
171	0x3dce0a03	0.10060503
172	0xbe817e4a	-0.25291663
173	0xbe75e903	-0.24014668
174	0xbca43102	-0.0200429
175	0x3d550a1e	0.0520116
176	0x3c2e9639	0.010655933
177	0xbd95cac3	-0.07314064
178	0xbcbbb8b1	-0.022915216
179	0xbe010390	-0.12599015
180	0x3de16079	0.11004729
181	0x3e784364	0.24244457
182	0x3dface2b	0.12246355
183	0x3dba260d	0.09089289
184	0x3df70fd1	0.120635636
185	0xbe383ce4	-0.17991978
186	0xbe7eeb63	-0.2489448
187	0xbdf3601d	-0.118835665
188	0xbdef35f1	-0.116802104
189	0x3e2ee08b	0.17077844
190	0x3d80e07d	0.06292818
191	0x3d32ae42	0.043623216
192	0x3d95d44e	0.073158845
193	0xbd88ccfd	-0.066797234
194	0xbb8de101	-0.004329801
195	0x3d5fbd8b	0.05462412
196	0xbd662d1a	-0.056195356
197	0xbe6b9cc3	-0.23009019
198	0x3d77ba67	0.0604805
199	0xbe07c7d0	-0.13259816
200	0xbd9e502d	-0.07730136
201	0x3da0380c	0.0782319
202	0xbe02d638	-0.1277703
203	0x3e26fee7	0.16308175
204	0x3e5bdede	0.21471736
205	0x3df1a23e	0.11798523
206	0xbd82e04e	-0.06390439
207	0xbe1d5e3e	-0.15367982
208	0x3bd637b5	0.0065374025
209	0xbe441d0a	-0.19151703
210	0x3cde2c9c	0.02712088
211	0x3e95a7ca	0.29229575
212	0xbd27e3a5	-0.040988583
213	0x3c721b98	0.014777087
214	0x3cd4c48a	0.025972623
215	0x3da253b5	0.07926122
216	0x3de09ce9	0.10967428
217	0x3e441ecc	0.19152373
218	0xbf090074	-0.53516316
219	0x3db69e9a	0.089169696
220	0x3d025d15	0.03182705
221	0xbdb977b0	-0.09056032
222	0xbde72aa5	-0.11287431
223	0xbe3b486b	-0.18289344
224	0x3d5f83bd	0.054568995
225	0x3d5ed0f4	0.054398492
226	0xbc8bf335	-0.017083744
227	0xbdcbe33b	-0.0995545
228	0xbe092748	-0.13393891
229	0x3d9344e9	0.07190878
230	0x3d698b6e	0.057017736
231	0x3cb5edbe	0.02220809
232	0xbe610bc0	-0.21977139
233	0x3d4ffe03	0.050779354
234	0x3d876cac	0.066125244
235	0x3dba5598	0.09098357
236	0x3cbe5ae8	0.023236707
237	0xbe8a4304	-0.27004254
238	0xbc0fc7df	-0.00877568
239	0xbd5e424e	-0.05426245
240	0xbdc4cdfc	-0.09609601
241	0xbeadba5b	-0.3393124
242	0x3dff7b0f	0.124746434
243	0xbe30e9d1	-0.17276694
244	0x3db52790	0.088454366
245	0x3d0cf84a	0.034416474
246	0xbd8a17dc	-0.06742832
247	0xbe5f398a	-0.21799293
248	0xbe2e744c	-0.17036551
249	0x3d1d22cf	0.038363274
250	0x3e67104c	0.2256481
251	0xbe8c0096	-0.27344197
252	0x3e3f5292	0.18683842
253	0xbdfb33c2	-0.122657314
254	0x3db61181	0.08890057
255	0x3d62f2fb	0.055407505

fc1.bias f4 [46]
0	0x3dfe768d	0.124249555
1	0x3f12a8e6	0.5728897
2	0x3e38629f	0.18006371
3	0x3e09a24f	0.13440822
4	0x3e5ae444	0.21376139
5	0x3def438c	0.116828054
6	0x3df821e1	0.12115837
7	0x3ebbec3c	0.3670367
8	0x3f549a00	0.83047485
9	0x3ec4b38b	0.3841823
10	0x3e89ab42	0.26888472
11	0x3cb81a17	0.022473378
12	0x3e6b9725	0.23006876
13	0x3ebc9893	0.36835155
14	0xbd7c3d90	-0.061582148
15	0x3f4ec79f	0.8077335
16	0x3ec1271d	0.37725154
17	0x3f32a7d1	0.6978732
18	0x3eb9aad9	0.3626316
19	0x3e999058	0.29992938
20	0x3e81468a	0.2524913
21	0x3de48152	0.111574784
22	0x3e0e0ba0	0.13871622
23	0x3ea9da00	0.33174133
24	0x3ea53538	0.32267165
25	0x3e88f93d	0.26752654
26	0x3e30b1dc	0.17255348
27	0x3f0a1adf	0.5394725
28	0x3e38a2ea	0.18030897
29	0x3f3ecb53	0.74529
30	0x3e74370b	0.23849122
31	0x3eac350a	0.33634216
32	0x3e84362a	0.25822574
33	0x3e6ee37e	0.23328969
34	0x3f341d45	0.7035716
35	0x3f4e43b5	0.8057206
36	0x3f39f420	0.7263813
37	0xbd7003ef	-0.0585975
38	0x3e3d224f	0.18470119
39	0x3ed17d1c	0.40915763
40	0x3f26811c	0.65040755
41	0x3e1223dc	0.14271492
42	0x3e25b0ae	0.16180679
43	0x3f19cdc3	0.6007959
44	0x3ec97f9d	0.39355174
45	0xbd0ec7c1	-0.03485847

fc2.weight f4 [483, 46]
0	0x3ee20439	0.44143847
1	0x3f48485b	0.78235406
2	0x3efc6d1d	0.49301997
3	0x3e2bd7f8	0.16781604
4	0x3f08669f	0.5328159
5	0x3d1023b7	0.03519031
6	0xbdd9e770	-0.10639846
7	0x3f2c394e	0.6727494
8	0x3e229671	0.15877701
9	0x3f01df98	0.507318
10	0x3e30ce25	0.17266138
11	0x3e17ce5b	0.14824812
12	0x3d81e3ad	0.06342254
13	0x3c922a64	0.017842479
14	0x3d332698	0.043737978
15	0x3ecd7b5b	0.40133175
16	0xbca8bd1a	-0.020597983
17	0x3ef23fc7	0.47314283
18	0x3f295478	0.66144514
19	0xbd4b5c5e	-0.049648635
20	0x3e37c76c	0.17947167
21	0x3edd637a	0.43239957
22	0x3eec8810	0.46197557
23	0x3f1eb772	0.61998665
24	0x3eeef08f	0.46667907
25	0x3f18dbc9	0.59710366
26	0x3eba3a74	0.3637272
27	0x3a8b19a2	0.0010612498
28	0x3db465de	0.08808492
29	0x3efef694	0.497975
30	0xbe07493a	-0.13211527
31	0xbe07e0db	-0.1326937
32	0xbcd858ff	-0.026409624
33	0xbdf67147	-0.12033325
34	0x3e707adb	0.23484366
35	0x3f02a06a	0.5102602
36	0x3e1c9d9a	0.15294495
37	0x3ee48bfe	0.44638056
38	0xbdf9ce3e	-0.12197541
39	0x3f2087da	0.62707293
40	0x3df4ef8f	0.11959755
41	0x3c4d8992	0.012545006
42	0xbdde1784	-0.10844329
43	0x3f2b3668	0.6687989
44	0x3e3dca8f	0.18534301
45	0x3e8083c3	0.25100526
46	0xbd8e4d19	-0.06948299
47	0x3e87b515	0.26505342
48	0x3e2c10f3	0.1680334
49	0x3dfa9b39	0.122366376
50	0xbcd40e12	-0.025885615
51	0x3e7c0b21	0.2461362
52	0xbdaba160	-0.08380389
53	0x3e61b57d	0.22041889
54	0x3f3d79e2	0.74014103
55	0x3d8fcdd0	0.070216775
56	0x3ee358ce	0.4440369
57	0x3d6a1f3e	0.0571587
58	0x3ee41983	0.44550714
59	0x3f156160	0.5835171
60	0xbd7093ff	-0.05873489
61	0x3f33ff75	0.7031167
62	0x3f0df682	0.55454266
63	0x3f295134	0.6613953
64	0x3cbf63bb	0.023362985
65	0xbdaf5cb8	-0.085626066
66	0x3ee1f973	0.44135627
67	0x3e5ce7bb	0.21572773
68	0x3d34adeb	0.044111174
69	0x3db309c3	0.08742096
70	0x3e114107	0.14184962
71	0x3e5959d0	0.21225667
72	0x3e5840c1	0.21118452
73	0x3f08fd30	0.53511333
74	0x3ec7b68f	0.3900647
75	0x3eca548f	0.39517638
76	0x3ec69fe6	0.38793868
77	0x3edbfc69	0.4296601
78	0x3e95aa86	0.29231662
79	0xbd6c2d92	-0.057660647
80	0x3f43a7b4	0.7642777
81	0x3f3de8d4	0.7418339
82	0x3f2c33dc	0.6726663
83	0xbdc0a80b	-0.09407052
84	0xbdbffaaf	-0.09373986
85	0x3d656853	0.056007694
86	0x3e289ac3	0.16465287
87	0xbdc1e6f6	-0.094678804
88	0x3dda1e88	0.106503546
89	0x3f15cd19	0.5851608
90	0x3ede51a9	0.43421677
91	0xbd99f53f	-0.0751748
92	0xbcef97cd	-0.029247189
93	0x3f365650	0.7122545
94	0x3f0835b4	0.53206944
95	0x3f0519d2	0.51992524
96	0x3e4c7d63	0.19969706
97	0x3ef6577d	0.48113623
98	0x3ca919c3	0.020642167
99	0x3f44e344	0.7690928
100	0x3f3a1c03	0.7269899
101	0x3e191865	0.14950712
102	0x3f01ab20	0.5065174
103	0x3e9ae6a1	0.3025408
104	0x3e469654	0.19393283
105	0x3f14101d	0.57837087
106	0xbdc410c8	-0.09573513
107	0x3f433ebe	0.7626761
108	0x3f0af725	0.5428336
109	0x3e9d5718	0.3073051
110	0x3eb32691	0.3499036
111	0x3e39bd80	0.18138695
112	0x3e2d7d45	0.16942318
113	0x3ed64926	0.41852683
114	0x3e7cc8fd	0.24686046
115	0x3e83c6ef	0.25737712
116	0x3f0d2185	0.5512927
117	0x3ea70bcd	0.3262619
118	0x3e24a175	0.16077216
119	0x3e94b53c	0.2904452
120	0x3dd4946e	0.10379873
121	0x3f039e2a	0.51413214
122	0x3e5ec46d	0.21754618
123	0x3c3b76d8	0.011441909
124	0xbe7b3e04	-0.24535376
125	0x3e684aef	0.22684835
126	0x3ed97cdd	0.42478076
127	0x3f486fb4	0.78295445
128	0x3ea1ea29	0.31623963
129	0x3d867a09	0.06566245
130	0x3e8acb8b	0.27108416
131	0x3ece6dd5	0.4031817
132	0x3ec6c8a0	0.3882494
133	0xbd9e20ca	-0.07721098
134	0x3e442e05	0.1915818
135	0x3f0a678d	0.54064256
136	0x3e901526	0.28141135
137	0x3bd62626	0.0065353094
138	0x3e023722	0.12716344
139	0x3f27917e	0.6545638
140	0x3e963262	0.29335314
141	0x3e73f5f6	0.23824295
142	0x3ea2dcf8	0.3180921
143	0x3efbe784	0.4920007
144	0x3f0219b9	0.508205
145	0x3ed0f9d2	0.40815598
146	0x3f414418	0.7549453
147	0x3f0d684a	0.5523726
148	0x3ea87f6e	0.3290972
149	0x3ef34397	0.47512504
150	0x3dee1d64	0.116266996
151	0x3e978a17	0.29597542
152	0xbd44373e	-0.047904246
153	0x3f3d7979	0.7401348
154	0x3ef83d33	0.4848419
155	0x3e2ff402	0.17182925
156	0x3e9a90df	0.30188653
157	0x3efc70d3	0.49304828
158	0x3e4fcae3	0.20292239
159	0x3e2996d5	0.16561444
160	0x3e068ee5	0.13140447
161	0x3eb556cf	0.35417792
162	0x3f050b61	0.5197049
163	0x3df2e718	0.11860484
164	0x3e86460b	0.26225314
165	0x3e5ff69b	0.21871416
166	0x3dd721d5	0.105045
167	0x3f4f2291	0.8091212
168	0x3d7c370b	0.06157593
169	0x3efcae2c	0.49351633
170	0x3e8b9190	0.27259493
171	0x3e51780c	0.2045595
172	0x3f08d955	0.5345662
173	0x3ed8ba6b	0.42329726
174	0x3f3afe5b	0.73044366
175	0x3e31347d	0.17305179
176	0x3eeebf94	0.46630538
177	0x3f211fee	0.62939346
178	0x3f4b9988	0.79531145
179	0x3ebf27ef	0.37335154
180	0x3f19d10c	0.60084605
181	0x3f32e043	0.69873446
182	0x3e75c174	0.23999578
183	0x3d78fe89	0.06078962
184	0x3dff13d3	0.12454953
185	0x3ed232d8	0.41054416
186	0x3e4d5949	0.20053591
187	0x3f0d4355	0.55180866
188	0x3e1e817b	0.1547908
189	0x3e340bde	0.17582652
190	0xbdc492d3	-0.09598317
191	0x3f04c8fd	0.51869184
192	0x3f21e0e0	0.63233757
193	0x3de71f2e	0.11285244
194	0xbd16c12e	-0.036805324
195	0x3ed51843	0.41620073
196	0x3df243a9	0.118293114
197	0x3e851a3a	0.25996572
198	0x3ed1fba8	0.4101231
199	0x3f4ee553	0.8081867
200	0xbe2dab3a	-0.16959849
201	0x3f3e82f4	0.7441857
202	0x3f0c0131	0.5468932
203	0x3dc89271	0.097935565
204	0x3e609b4e	0.21934244
205	0x3df4b3e9	0.11948378
206	0x3d1fdcba	0.03902886
207	0x3f151067	0.58228153
208	0xbdbfeb7f	-0.09371089
209	0x3e4ba217	0.19886051
210	0x3d65db4c	0.05611734
211	0x3f181461	0.59406096
212	0x3e29e883	0.16592602
213	0x3efe643a	0.49685842
214	0x3e27fbc6	0.16404638
215	0x3d6762f9	0.056490872
216	0x3e485b89	0.19566168
217	0x3eef5b8d	0.46749535
218	0x3f4d4d53	0.8019611
219	0x3f3c418e	0.7353753
220	0x3ef29bfc	0.47384632
221	0x3dd152f4	0.102209
222	0xbd3ca7b7	-0.046058383
223	0x3c3a427e	0.011368392
224	0x3f2dea48	0.6793561
225	0x3e5ac51a	0.21364251
226	0xbda2f249	-0.079563685
227	0x3ebe95ba	0.37223607
228	0x3f13756e	0.5760106
229	0x3edac0a8	0.4272511
230	0x3edf65db	0.43632397
231	0x3ed035fe	0.40666193
232	0x3ecdacd5	0.40170923
233	0xbcda3a31	-0.026639076
234	0x3f0d5dd2	0.55221283
235	0x3dba7e99	0.09106178
236	0x3ddb893b	0.10719534
237	0x3eb210f7	0.34778568
238	0x3eb38eb7	0.3506982
239	0x3f00c428	0.5029931
240	0x3d7a2671	0.061071817
241	0x3ed0840b	0.4072574
242	0x3e540dd8	0.20708406
243	0x3dba1a5a	0.090870574
244	0x3e4ad046	0.19806013
245	0x3efd21d3	0.49439868
246	0x3e495e6a	0.19664922
247	0x3ed6d225	0.41957203
248	0x3ea734e0	0.32657528
249	0x3efa051d	0.48832026
250	0x3eff1ef4	0.49828303
251	0x3d7bd9b9	0.061486933
252	0x3e7b76c8	0.2455703
253	0x3f08f0be	0.53492343
254	0x3e81d4ef	0.25357768
255	0x3ece1ff3	0.4025875

fc2.bias f4 [483]
0	0x3f7e96d6	0.9944891
1	0x3fb10e6f	1.383253
2	0x3f6e1f6a	0.93016684
3	0x3f48fe1d	0.78512746
4	0x3f5917eb	0.8480212
5	0x3f19aa15	0.6002515
6	0x3f32b33a	0.6980473
7	0x3f53c2d5	0.82719165
8	0x3f7725b6	0.9654192
9	0x3f9a23b8	1.204215
10	0x3cc58da6	0.024115395
11	0x3de6ce22	0.112697855
12	0xbcf47318	-0.029840037
13	0xbdfd73c9	-0.123756
14	0xbdd68e90	-0.104764104
15	0x3cd97829	0.026546555
16	0x3c86c936	0.016453367
17	0x3ca1c6a2	0.019748036
18	0x3d3bdc4e	0.045864396
19	0xbe0045a5	-0.12526567
20	0x3ded99b1	0.1160158
21	0xbe17cc76	-0.1482409
22	0x3df4a9a0	0.11946416
23	0x3d9100c7	0.070802264
24	0xbd8409ca	-0.064471796
25	0xbe278f7b	-0.16363327
26	0xbdd8dd7c	-0.1058912
27	0xbe15c479	-0.1462573
28	0xbd7e8af2	-0.062144227
29	0xbdc6dc06	-0.09709935
30	0x3d631c65	0.055447
31	0xbd3f6bc6	-0.04673364
32	0x3c66889f	0.014070659
33	0xbd12d81c	-0.03585063
34	0xbdbac4ae	-0.09119545
35	0xbd6e23b4	-0.058139518
36	0xbdadefa1	-0.08492971
37	0x3d94bf24	0.0726302
38	0x3dac108d	0.08401594
39	0xbc799a99	-0.015234613
40	0x3db73833	0.08946266
41	0xbdd055dd	-0.10172627
42	0x3c73fd30	0.014891908
43	0xbe04be71	-0.12963273
44	0xbde81948	-0.11332947
45	0x3d0300eb	0.031983297
46	0xbdc4d728	-0.0961135
47	0x3db128b7	0.08650344
48	0xbdd31b24	-0.10307911
49	0x3c8faa55	0.017537275
50	0xbe138a02	-0.14408115
51	0xbe067eab	-0.13134257
52	0x3d5f8b3e	0.05457615
53	0xbdd13efc	-0.102170914
54	0xbddde169	-0.10834009
55	0xbde38357	-0.111090355
56	0x3a590b65	0.0008279591
57	0x3d49079f	0.049079534
58	0x3c5ec33e	0.013596354
59	0x3bc7430f	0.006080992
60	0xbdb7d444	-0.08976033
61	0xbc0f31e7	-0.008739925
62	0x3d9a6bac	0.07540068
63	0xbd6a581d	-0.057212938
64	0xbde5dbae	-0.11223541
65	0xbdbf5337	-0.09342044
66	0xbdf2ce41	-0.11855746
67	0x3dec1cf1	0.11528958
68	0xbc178b0e	-0.009249462
69	0xbb9d35fc	-0.004797695
70	0xbb52a449	-0.0032141379
71	0x3d86f489	0.0658961
72	0xbd8cd024	-0.06875637
73	0x3d0c4412	0.034244604
74	0x3d9ca3b3	0.07648411
75	0x3d91f342	0.07126476
76	0xbe26420e	-0.16236135
77	0xbdf198a3	-0.11796691
78	0xbe2f34d8	-0.17110002
79	0x3cd8e7c3	0.0264777
80	0x3de03383	0.10947325
81	0x3de2fede	0.11083768
82	0x3b9587ac	0.0045632925
83	0x3cab8075	0.020935277
84	0xbdcdf181	-0.10055829
85	0xbd914343	-0.07092907
86	0xbccc3693	-0.024928367
87	0xbd143fc4	-0.036193624
88	0xbbfccc3c	-0.0077147763
89	0x3c80b9ee	0.015713658
90	0xbd41c6ac	-0.04730861
91	0x3c0935f8	0.008374684
92	0xbe257ce7	-0.16160928
93	0xbe28b661	-0.16475822
94	0xbd71f64a	-0.05907277
95	0xbd733fea	-0.059387125
96	0x3dd8d6dc	0.10587856
97	0xbdcac1c3	-0.09900238
98	0xbe22b2e8	-0.1588856
99	0x3d6dd88c	0.058067843
100	0x3d933af7	0.07188981
101	0xbe155620	-0.14583635
102	0x3dc0d6a7	0.09415942
103	0xbd32623a	-0.043550707
104	0xbe0bb06f	-0.13641523
105	0x3df597a9	0.119918175
106	0xbc8b8c29	-0.017034607
107	0x3b6fed78	0.0036610048
108	0xbe1f03fd	-0.15528865
109	0x3d0a510a	0.03376869
110	0xbd82a350	-0.06378806
111	0x3dcc4e72	0.099759
112	0x3d55ee58	0.052229255
113	0xbd896e1b	-0.06710454
114	0xbdee2f30	-0.11630094
115	0x3d1829d2	0.037149258
116	0x3db334c6	0.087503
117	0x3d65d6ac	0.05611293
118	0xbc68c8f4	-0.014208067
119	0x3d5bb6ac	0.053641006
120	0xbdc73758	-0.09727353
121	0xbd2861d6	-0.04110893
122	0x3db61962	0.0889156
123	0x3d327871	0.043571893
124	0x3dd298b5	0.10283033
125	0xbd32f9ce	-0.043695264
126	0xbdc459ba	-0.095874265
127	0xbd14d20f	-0.03633314
128	0xbe163118	-0.14667165
129	0xbe12b3a1	-0.14326335
130	0xbd1e66fb	-0.03867243
131	0x3d0c477b	0.034247857
132	0xbddf18b6	-0.10893385
133	0xbbd45e96	-0.006481002
134	0x3e07a815	0.13247712
135	0xbc0f2048	-0.008735724
136	0xbd891c27	-0.06694823
137	0x3de28d3b	0.11062094
138	0xbd554129	-0.052064095
139	0xbc78555f	-0.015157073
140	0xbd9041f0	-0.070438266
141	0x3d1c9570	0.038228452
142	0x3cfea21d	0.031083161
143	0xbe1d2627	-0.15346585
144	0x3d35907d	0.044327248
145	0xbe1691f6	-0.14704117
146	0xbd35a165	-0.04434337
147	0x3dea5d7c	0.11443612
148	0xbbd46a79	-0.006482419
149	0x3d99f777	0.07517903
150	0xbdab9d4f	-0.083796136
151	0xbb6f8e92	-0.0036553484
152	0x3c8664c2	0.016405467
153	0x3ca7dda5	0.02049143
154	0xbe01d7c5	-0.12679966
155	0xbe1e4c67	-0.15458833
156	0x3d59ccb7	0.053173747
157	0x3be8c679	0.007103738
158	0xbcb39625	-0.02192218
159	0xbcf5cb73	-0.030004239
160	0x3d75243d	0.059849013
161	0xbdb8cad1	-0.09023059
162	0x3b12d279	0.0022403284
163	0x3df086b3	0.11744442
164	0xbde6b6ba	-0.11265321
165	0xbe09f53d	-0.13472457
166	0xbe23270b	-0.15932862
167	0xbd739c36	-0.059475146
168	0x3bea0e87	0.007142845
169	0xbda167d3	-0.07881131
170	0x3cd376d6	0.025813501
171	0x3dda1018	0.10647601
172	0xbd69f123	-0.05711473
173	0x3d01fd24	0.031735554
174	0xbe0a2be6	-0.13493308
175	0x3c342a52	0.010996418
176	0x3ac34610	0.00148982
177	0x3de36859	0.11103887
178	0xbd8daa7c	-0.06917283
179	0xbd48342c	-0.04887788
180	0xbdcd873d	-0.1003556
181	0x3d9ed666	0.07755737
182	0xbdd2d445	-0.102943935
183	0x3d8a6561	0.06757618
184	0xbd9ad309	-0.07559783
185	0xbb39130d	-0.0028240115
186	0x3dd79948	0.10527283
187	0x3dcf03ac	0.10108122
188	0x3cd26794	0.025684156
189	0xbe1b40fc	-0.15161508
190	0x3d9b2294	0.07574955
191	0x3d7b3d6a	0.061337866
192	0xbc23d126	-0.009998595
193	0xbd8f46ed	-0.0699595
194	0x3dfaf407	0.12253576
195	0xbc6b1eab	-0.0143505735
196	0xbdacbe4f	-0.08434736
197	0xbdf28883	-0.11842444
198	0xbe169631	-0.14705731
199	0x3d30be8c	0.04315047
200	0xbc191ec9	-0.009345719
201	0x3d650e64	0.055921927
202	0xbe274b8b	-0.16337411
203	0x3dc6da2d	0.097095825
204	0xbcad4b95	-0.021154204
205	0xbb111e19	-0.0022143184
206	0x3dbc58b9	0.0919661
207	0x3dfcff2e	0.12353359
208	0xbe2436c9	-0.16036524
209	0xbd3d57df	-0.04622638
210	0x3dac8575	0.084238924
211	0xbe0ba91d	-0.1363873
212	0xbce942d0	-0.028474241
213	0xbdaa0960	-0.083025694
214	0x3d0e77f2	0.034782358
215	0xbe147c3e	-0.1450052
216	0xbddbe438	-0.10736889
217	0xbc33ca42	-0.010973515
218	0xbb99f0ac	-0.00469788
219	0x3ac131ce	0.0014739574
220	0xbd9d744e	-0.07688199
221	0x3d6af447	0.057361867
222	0x3de77e6d	0.11303411
223	0xbe05e851	-0.13076903
224	0xbcc7974a	-0.024364132
225	0x3ce4fa35	0.02795134
226	0xbd2299e5	-0.039697547
227	0xbd8b79b7	-0.06810325
228	0x3dd78127	0.10522681
229	0xbdcb3b6e	-0.09923445
230	0x3ddf28c9	0.10896451
231	0xbd59cb1d	-0.05317222
232	0xbd9ed31d	-0.077551104
233	0xbd9b1846	-0.07572989
234	0x3dd0f8d9	0.10203714
235	0xbe0fc530	-0.14040065
236	0x3bb61496	0.0055566533
237	0xbdfcb37b	-0.12338921
238	0xbe013e9e	-0.12621543
239	0xbde1232e	-0.10993038
240	0xbc4e23fb	-0.012581821
241	0xba24cde8	-0.0006286786
242	0x3c5eef96	0.013606926
243	0x3da46f91	0.08029092
244	0x3d3db0bc	0.046311125
245	0x3dbcfeec	0.0922831
246	0xbe0dbb3f	-0.1384096
247	0xbd7f4913	-0.06232555
248	0x3de3c05b	0.11120673
249	0xbdc6920e	-0.096958265
250	0xbe184b34	-0.14872438
251	0x3da6b0e0	0.08139205
252	0x3c7b6091	0.015342847
253	0x3d085ec3	0.033293497
254	0xbd293558	-0.04131064
255	0x3ca8b721	0.020595135
